state/mogp_model_lmc_3_state.pth (torch, 919806 bytes, 7 tensors)

variational_strategy.lmc_coefficients f4 [20, 20]
000000 a5 55 cc 29 81 17 d0 29 88 f8 d2 a8 55 a4 9b aa
       9.074277e-14 9.241133e-14 -2.3422467e-14 -2.764756e-13
000010 e2 90 a0 aa 49 a5 89 2b 45 13 b1 a7 6d 59 e4 ab
       -2.8522242e-13 9.780311e-13 -4.914826e-15 -1.6225195e-12
000020 b6 d6 3e 28 57 ed 2c 2c 52 7c 5e 2c 65 32 88 2c
       1.0593677e-14 2.457442e-12 3.161711e-12 3.8709474e-12
000030 52 9f 1c 2c d8 e6 8f ac af 67 e2 ac c3 f9 9f ac
       2.2257374e-12 -4.0899333e-12 -6.4348175e-12 -4.546781e-12
000040 a8 a6 50 ad 65 5f 9d ae 57 a7 7f ae 0b ce 37 2f
       -1.1860436e-11 -7.156479e-11 -5.8128915e-11 1.6716954e-10
000050 98 fc 27 b9 7f b4 9d 3c 91 80 9b bb da b8 d4 bc
       -0.0001602046 0.019251106 -0.004745551 -0.02596705
000060 aa 02 6f bc 4a 8d 31 3c e7 b0 fb 3c e3 02 2b 3d
       -0.0145880375 0.010836909 0.030724002 0.0417508
000070 ba 1e 2f 3d 75 e9 0f 3d 85 c7 ab 3c 4c af 21 3b
       0.042753913 0.03513475 0.020969162 0.0024671135
000080 1c 3a 9c bc c2 1e 2c bd d4 2e 85 bd 70 75 b2 bd
       -0.019070677 -0.04202152 -0.065030724 -0.08713806
000090 66 bd dc bd dc 7f 01 be c4 6e 12 be e8 11 21 be
       -0.107783124 -0.1264643 -0.14300066 -0.15729487
0000a0 ae b3 d7 ab dc 4a 02 2c 61 90 7b ad 12 9d 99 aa
       -1.532654e-12 1.8515666e-12 -1.4299757e-11 -2.728725e-13
0000b0 1b 40 05 2e 49 5d d1 af 20 29 1a 30 41 d8 3c 30
       3.0297636e-11 -3.8083162e-10 5.6083316e-10 6.8701317e-10
0000c0 9e d6 15 af 33 bf 2a b0 0e fa 86 b0 7c f2 03 b0
       -1.3627718e-10 -6.211735e-10 -9.820853e-10 -4.8002113e-10
0000d0 4a 49 53 ad 5e cc 86 2f fd 95 4e 30 dc 27 de 30
       -1.2010235e-11 2.451967e-10 7.515551e-10 1.6163955e-09
0000e0 5f 4d a6 30 2d 8d ac 2f 08 57 d5 af e4 46 2f b1
       1.210008e-09 3.138693e-10 -3.8806314e-10 -2.5506148e-09
0000f0 04 ac de 29 c8 b0 2b 2a e2 f6 45 aa 91 86 2d ab
       9.8886204e-14 1.5249184e-13 -1.758277e-13 -6.1648695e-13
000100 f0 9b d1 28 fc bb ff 2a 6b 54 0e 2c 25 56 27 2c
       2.3271288e-14 4.542754e-13 2.0226275e-12 2.3779947e-12
000110 89 c9 e6 2a d4 42 71 ab 32 18 24 ac be 6a 3a 2c
       4.099605e-13 -8.571314e-13 -2.3319233e-12 2.6491444e-12
000120 b0 b9 fe 2c 67 11 69 2c b9 aa 45 ad 77 c6 16 ae
       7.2397296e-12 3.3120952e-12 -1.12360616e-11 -3.4282324e-11
000130 61 f8 2e ae 39 77 d8 ad 05 76 29 2e 65 77 a7 2e
       -3.9783624e-11 -2.4609302e-11 3.8530974e-11 7.6154895e-11
000140 7c ba d6 aa 9c 75 31 2b c9 de d6 2c 95 40 b7 2c
       -3.8143436e-13 6.304625e-13 6.10698e-12 5.208343e-12
000150 d7 f7 23 2c 8f 77 92 ad 14 2c 26 ad b5 fb 90 2b
       2.3301272e-12 -1.6651373e-11 -9.445795e-12 1.0301678e-12
000160 f1 cb 15 2e 76 cf 97 2e 05 05 01 2f a6 50 fb 2e
       3.4059814e-11 6.9035375e-11 1.1734265e-10 1.14284845e-10
000170 68 25 37 2e 65 41 04 2e 02 ec 40 2d fa 63 db ae
       4.1642606e-11 3.0071407e-11 1.0966341e-11 -9.9767264e-11
000180 40 e4 09 af 67 2b 00 af 3a 33 4c af c7 69 1a af
       -1.2541168e-10 -1.1656952e-10 -1.8571891e-10 -1.4043798e-10
000190 8f f8 6c 2b 34 c9 5c 2b 0d 0e 14 ab 26 08 9d ac
       8.4188987e-13 7.8438926e-13 -5.259966e-13 -4.463113e-12
0001a0 cc b1 f8 ab 7e 20 c0 2b 4c c3 a4 2c f0 b0 7d 2c
       -1.7670808e-12 1.3651439e-12 4.6828427e-12 3.6051682e-12
0001b0 30 81 46 2c 0a 98 21 2d 91 f1 d8 2d e5 38 a7 2e
       2.8209206e-12 9.18555e-12 2.4663634e-11 7.604387e-11
0001c0 f1 fb ab 2e 0c c6 26 2e 22 3d dc ae fc 24 c7 af
       7.8209335e-11 3.791993e-11 -1.0015301e-10 -3.6224168e-10
0001d0 4a 52 fe af 33 5f 5a af ed 96 c8 2f 8f e9 34 30
       -4.62608e-10 -1.9860806e-10 3.6487027e-10 6.5815525e-10
0001e0 a1 97 4b 2a 25 eb 8a 2a 40 2b 8e ab 35 df b4 ab
       1.8082629e-13 2.467689e-13 -1.0101711e-12 -1.2851722e-12
0001f0 15 25 60 2b ef a9 a3 2b 7b 45 e1 2c a4 c4 fb 2c
       7.963225e-13 1.1629013e-12 6.4025985e-12 7.1556806e-12
000200 87 85 c0 ab 2f 2b e5 ac 98 a0 7c ad ba 87 12 ad
       -1.3679482e-12 -6.513366e-12 -1.43602005e-11 -8.3292765e-12
000210 6f 41 9a 2b 8e 8e b5 aa 56 f3 12 ad 65 ed c1 ad
       1.096052e-12 -3.2250976e-13 -8.353171e-12 -2.2046984e-11
000220 f0 4a 43 ae 2c 0f 2f ae 45 34 54 2e 6a dd 0f 2f
       -4.4404425e-11 -3.980387e-11 4.8249644e-11 1.3084436e-10
000230 0d 70 06 b8 38 39 3a bd f0 69 3f 3c c4 b8 30 3d
       -3.2052445e-05 -0.045464724 0.011682972 0.043144956
000240 03 d4 05 3d 96 85 82 3c 03 b0 65 3b 61 15 7c bb
       0.032672893 0.01593284 0.0035047538 -0.0038464891
000250 07 4d f1 bb cf 08 03 bc a6 34 e8 bb 6b 94 b2 bb
       -0.0073639187 -0.007997706 -0.0070863543 -0.0054498217
000260 d3 c6 75 bb d6 38 16 bb 96 1b 99 ba e5 d4 0b ba
       -0.0037502542 -0.002292206 -0.0011681195 -0.0005334153
000270 7c e1 b5 b9 8b 18 e2 b9 f1 7e 45 ba 6c 7e 9d ba
       -0.0003469101 -0.00043124365 -0.00075338694 -0.0012015826
000280 c7 ab 4d 2d 69 27 3b 2d ee 75 98 af b9 d1 78 af
       1.1691043e-11 1.063847e-11 -2.7732433e-10 -2.2629977e-10
000290 5b 6f 07 30 80 ec dd 2f c0 0d e8 30 aa 7a 79 30
       4.927096e-10 4.036771e-10 1.688413e-09 9.075999e-10
0002a0 ed 3b df b0 83 95 fa b0 1e c2 85 b1 2c 2d 42 b1
       -1.6242417e-09 -1.8232388e-09 -3.892878e-09 -2.8256393e-09
0002b0 90 f9 b3 b0 5d f1 03 b0 15 3e 13 30 4d f9 57 31
       -1.3094894e-09 -4.800052e-10 5.356651e-10 3.1428329e-09
0002c0 df cd 7d 31 51 10 e8 30 04 bb 72 31 a9 6e 28 31
       3.693337e-09 1.6884859e-09 3.532194e-09 2.451012e-09
0002d0 ed 87 e2 2c 92 4c d6 2c 28 b5 d0 ad cc 22 14 ae
       6.438397e-12 6.090747e-12 -2.3727312e-11 -3.368221e-11
0002e0 68 59 1d ad 93 d4 f8 2d bc 55 63 2e 22 d5 88 2e
       -8.944269e-12 2.8288738e-11 5.1689972e-11 6.222424e-11
0002f0 d3 6f 0a 2f a2 e2 6e 2f 27 e9 80 2f b8 d9 8f 2e
       1.2590755e-10 2.172649e-10 2.344873e-10 6.541562e-11
000300 bb c1 86 af 64 0d 2b b0 91 12 9f b0 f0 d6 a8 b0
       -2.4512112e-10 -6.2228467e-10 -1.157405e-09 -1.2284698e-09
000310 5e e1 a4 b0 12 87 05 ad e1 dc d8 30 2e 1b 6d 31
       -1.1996624e-09 -7.590166e-12 1.5778846e-09 3.450349e-09
000320 0f c4 ad 38 30 ca 9f 3c 25 a9 6d bd ba c3 07 bc
       8.2858016e-05 0.01950559 -0.058022637 -0.008286411
000330 e4 95 cb 3c 39 fb d6 3c 86 28 9d 3c fb d1 1d 3c
       0.024851747 0.02624284 0.019184362 0.009632583
000340 e8 42 d3 3a a8 24 84 bb b4 8f f6 bb 3c 53 18 bc
       0.0016117962 -0.00403269 -0.007524455 -0.009297188
000350 58 3d 1a bc 99 97 0a bc 4e 3c da bb bd 73 8e bb
       -0.00941404 -0.008458995 -0.006660021 -0.004347293
000360 28 06 ef ba 2e 40 3c 3a ce 54 4a 3b 9e 0e ae 3b
       -0.0018236088 0.00071811944 0.0030873301 0.005311801
000370 f6 54 4c 2c 5d 69 d2 2b f5 2d 16 ae 02 2a c2 ad
       2.9037306e-12 1.4950642e-12 -3.414687e-11 -2.2073902e-11
000380 e8 fb a9 2d ca 6b a3 2e 57 53 bd 2e c8 de d4 2e
       1.9324944e-11 7.431529e-11 8.609529e-11 9.680218e-11
000390 8a f6 ce ad 60 d1 c9 ae 78 80 d2 af c1 d5 0e b0
       -2.3528974e-11 -9.177614e-11 -3.829006e-10 -5.196306e-10
0003a0 13 c1 03 b0 0d 73 e5 af 55 b7 44 af a2 63 a0 2f
       -4.79319e-10 -4.1736606e-10 -1.7891229e-10 2.9174624e-10
0003b0 7f 87 25 30 a1 b4 f4 2f 89 9b 52 30 30 1d 73 30
       6.02192e-10 4.4511686e-10 7.6618584e-10 8.8444363e-10
0003c0 dc 30 34 aa 5c f9 86 aa cd 63 a0 29 44 28 87 2b
       -1.6004163e-13 -2.397621e-13 7.12274e-14 9.603503e-13
0003d0 50 58 48 2a 95 2e 14 ab 98 e5 fa ab 40 35 17 ac
       1.7794208e-13 -5.264481e-13 -1.7827293e-12 -2.148795e-12
0003e0 bf 90 b9 ab 25 3b de ab d6 72 12 ac 04 5c 18 ad
       -1.3185216e-12 -1.5790465e-12 -2.0811595e-12 -8.660631e-12
0003f0 d1 89 59 ad 96 40 66 ac 03 9a b2 2d e1 62 7e 2e
       -1.2365623e-11 -3.2720818e-12 2.0304652e-11 5.7840736e-11

variational_strategy.base_variational_strategy.inducing_points f4 [20, 100, 13]
000000 21 70 31 40 68 ae 1b c0 fe 67 0e 40 6c cf 2d c0
       2.7724688 -2.43252 2.2250972 -2.715785
000010 15 2a d0 3f 87 92 3c c0 43 dc da 3f 2e 4e 24 40
       1.6262842 -2.9464433 1.7098469 2.5672717
000020 fd c8 51 c0 b6 29 14 40 4a c6 e5 3f 69 af e9 3f
       -3.2778924 2.3150458 1.7951138 1.8256656
000030 33 dc c5 3f a8 6b cb be e8 a8 95 3f a0 49 84 3f
       1.5457824 -0.39730573 1.1692171 1.0334969
000040 58 14 0a c0 11 aa d3 be 31 35 ce 3e 27 b0 b7 be
       -2.1574917 -0.41340688 0.40274957 -0.3587658
000050 b2 8f 09 c0 6e 1b 06 c0 cb 87 d0 be 68 ff a5 be
       -2.1493955 -2.0954242 -0.40728602 -0.32421422
000060 9f fb b7 be 72 6a c6 3e 53 bc 88 bf c0 82 5c bf
       -0.3593416 0.38753086 -1.0682472 -0.8613701
000070 20 02 1b 3f 54 70 36 bd 29 f1 be bd 96 17 a4 3f
       0.6055012 -0.04454072 -0.093233414 1.2819698
000080 f4 f5 05 be 7d 8b 9f bf dd c0 95 bd 7e 6c ff bc
       -0.13082105 -1.2464443 -0.073121764 -0.031179663
000090 22 9e a4 bf d5 a9 a0 bf 6c 9d 9f 3f af 92 16 40
       -1.2860758 -1.2551829 1.2469916 2.3527029
0000a0 f0 23 94 bf fa 9c 06 40 19 6d 85 c0 26 71 e9 bf
       -1.1573467 2.103331 -4.1695676 -1.8237655
0000b0 d2 da bc bf 15 09 df 3f cd 1e 15 c0 4d cd 55 c0
       -1.4754279 1.7424647 -2.330005 -3.3406556
0000c0 f2 1d 0b c0 c2 56 fc 3f b4 a9 c4 3f c2 28 13 c0
       -2.1737027 1.9713976 1.5364289 -2.2993627
0000d0 33 68 85 bd 31 48 1c bf 9b d0 7d be 02 be 41 3f
       -0.06514015 -0.61047655 -0.24786608 0.75680554
0000e0 63 8a 39 3f b5 5a 3c bf d6 8b 80 be 4d e2 23 be
       0.72476786 -0.7357591 -0.25106686 -0.16004296
0000f0 f1 f1 49 3f b8 f6 3d 3f 53 74 48 3f df ef 46 3f
       0.788848 0.7420459 0.78302497 0.77709764
000100 da 57 82 3e 4e e8 80 c0 60 fd 31 c0 93 f8 e2 bf
       0.2545765 -4.0283575 -2.7810898 -1.7732109
000110 83 f1 58 c0 49 8e d3 bf 3c 38 17 c0 72 f1 08 c0
       -3.3897407 -1.6527797 -2.3628073 -2.1397367
000120 d0 7a 05 c0 53 0b e0 bf 6a 39 40 40 af d8 00 40
       -2.0856209 -1.7503456 3.0035043 2.0132253
000130 11 40 d2 3f 3d b6 e1 3f d2 53 9e bf d3 e6 2c c0
       1.6425802 1.763374 -1.236933 -2.7015884
000140 2a a2 12 c0 b2 02 2c 40 56 c4 d2 3f 6b 18 36 c0
       -2.2911477 2.6876645 1.6466167 -2.8452404
000150 e0 29 e7 bf 95 96 05 40 d5 bf 64 c0 bc 28 c1 bf
       -1.8059654 2.0873158 -3.5742085 -1.5090556
000160 ed 23 f1 bf 72 0b fe 3f 64 5d 4c c0 f6 79 80 3f
       -1.8839089 1.9847243 -3.1932 1.003722
000170 9e 1c 48 bf 18 13 72 3f 87 65 4b be 8c 25 3c 3f
       -0.78168666 0.94560385 -0.19862948 0.7349479
000180 7a c1 3c bf d3 c5 35 be f0 7c 46 3f 9d e2 49 3f
       -0.7373272 -0.17751245 0.7753439 0.7886141
000190 0e 08 3c 3f cd 92 2e be e4 56 44 be 8b c7 2c 3e
       0.7344979 -0.17048188 -0.19173771 0.16872995
0001a0 2c e7 39 bd 66 68 94 3f b1 cb 19 bf d2 07 b0 bf
       -0.04538648 1.159436 -0.60076433 -1.3752387
0001b0 4c 6c c5 bf 56 f4 be 3f 58 f1 f0 3e f0 96 ad bf
       -1.5423675 1.4918315 0.4705913 -1.3561687
0001c0 c0 db b2 bf d3 fe b3 bf 85 32 99 be 98 67 b1 3e
       -1.3973312 -1.4062141 -0.29921356 0.34649348
0001d0 f6 7c c0 3f bf 06 79 c0 48 e9 d7 3f 01 00 a6 3f
       1.5038135 -3.8910367 1.6868067 1.2968751
0001e0 82 68 a7 bf bb 06 20 40 24 12 bd bf 9d 8b 23 40
       -1.3078768 2.5004108 -1.4771161 2.5553963
0001f0 70 2f cc bf 07 b5 d4 bf 81 34 40 c0 b6 7c 15 40
       -1.5951977 -1.6617745 -3.0032046 2.3357368
000200 4e e4 d2 bf d5 29 3b c0 db 1c 15 40 df e5 fd 3e
       -1.6475923 -2.9244282 2.3298862 0.4958944
000210 8f 41 a0 3f 0b a8 14 c0 8a 3d a6 bf 75 30 eb 3f
       1.2520007 -2.3227565 -1.298753 1.8374163
000220 88 af ce bf b2 d4 15 c0 84 ec c9 bf 88 6b 91 40
       -1.6147318 -2.341107 -1.5775304 4.5443764
000230 bc 9d 0f 40 e7 fd 44 40 45 57 e0 bf a9 73 d5 bf
       2.2440023 3.077997 -1.7526633 -1.6675922
000240 ab 59 bb bf 50 eb f0 3f b4 ad 0b 40 7f 18 db bf
       -1.463674 1.8821812 2.182477 -1.7116851
000250 ef f7 dd 3f c6 11 39 c0 7d e3 f7 bf f6 e9 c8 bf
       1.7341288 -2.8917098 -1.9366299 -1.5696399
000260 cb 64 f0 3f 86 e6 f1 3f 86 ff cd bf f2 6e 8a c0
       1.878076 1.8898475 -1.6093605 -4.326043
000270 d4 32 01 bd 0c 07 53 bf 55 20 a9 3f bc 80 54 3f
       -0.031542614 -0.8243263 1.3212992 0.83008933
000280 de d6 4e 3f 14 10 55 bf c0 22 91 be 28 05 8d be
       0.8079661 -0.8322766 -0.28346825 -0.27542996
000290 3e f4 61 3f 51 b1 55 3f 1c 24 5a 3f c0 a6 58 3f
       0.8826331 0.8347369 0.8521135 0.8462944
0002a0 7d e6 8f 3e fc 5f 01 40 30 50 29 40 31 7c 30 c0
       0.28105536 2.0214834 2.6455193 -2.75758
0002b0 b6 56 5a c0 69 9b 0e 40 33 0f be bf 67 13 c1 3f
       -3.4115424 2.2282355 -1.4848388 1.5084046
0002c0 0d 80 35 40 0d 8e 04 c0 e9 2f 31 c0 ce 7c 15 c0
       2.8359406 -2.07117 -2.7685492 -2.3357425
0002d0 f1 e0 ad 3f 01 45 b9 bf 11 b9 e5 bf 3e 23 19 40
       1.3584272 -1.4474183 -1.7947103 2.392776
0002e0 b4 69 a5 bf 1a 01 30 40 54 f0 b9 bf ae 83 a0 3f
       -1.2922883 2.7500672 -1.4526467 1.2540185
0002f0 a9 86 14 40 8f 21 ce bf 76 83 8d bf b8 9a 35 40
       2.320719 -1.6103991 -1.1055744 2.8375683
000300 f4 2c 8d bf 58 3d d4 bf 82 cd 34 c0 ab b8 01 40
       -1.1029344 -1.6581221 -2.8250432 2.0268962
000310 3a 28 cf bf d1 8d 07 c0 c1 08 b8 3f 5c 45 06 40
       -1.6184151 -2.1180308 1.4377671 2.0979834
000320 d6 ec 9e bf 1b fd af 3f d6 8a dc 3f ef 0c b7 3f
       -1.2416027 1.3749117 1.7229869 1.4300822
000330 9e c9 3d c0 9d eb 2b c0 b8 b7 3a c0 70 cc 32 c0
       -2.9654307 -2.6862557 -2.9174633 -2.7937279
000340 b0 aa 80 bf 92 ec ce bf 78 29 05 c0 f9 f4 25 c0
       -1.005209 -1.6165946 -2.080656 -2.593077
000350 87 9b be 3f 2e 11 0b c0 fd 16 6f 40 c9 f0 17 40
       1.4891213 -2.1729236 3.735778 2.3740714
000360 6a c9 dd bf f9 57 47 40 cb 35 a4 bf 19 1f eb bf
       -1.7327092 3.1147444 -1.2828916 -1.8368865
000370 8d 95 b3 3f e7 34 29 c0 84 88 34 40 44 8b 3f 3f
       1.4030014 -2.643854 2.8208323 0.7482188
000380 dc c4 ea bf 3c 6a c2 3f 8b d7 8c 3f c5 9f f0 3f
       -1.8341327 1.518867 1.1003278 1.8798758
000390 a0 ae e4 bf 82 b9 19 40 59 de b1 3f f7 f2 6e 3f
       -1.7865791 2.4019475 1.389598 0.93339485
0003a0 34 dc f0 bf 2c 6b 03 c0 93 da c6 bf 83 6f 62 40
       -1.8817201 -2.0534163 -1.5535454 3.5380561
0003b0 b1 e2 4a 3f 67 53 0b 40 69 a8 ea 3f 06 b5 55 40
       0.79252154 2.1769655 1.8332645 3.3391738
0003c0 07 07 17 40 ed cf 12 40 15 5b 09 c0 95 d5 b3 3f
       2.359804 2.2939408 -2.1461842 1.4049555
0003d0 99 77 14 40 f6 8c e2 bf e1 01 d8 3f 26 50 e1 3f
       2.3197997 -1.7699268 1.6875573 1.7602584
0003e0 47 75 b5 3f a7 57 d9 bf 39 36 0e c0 b5 a0 2e c0
       1.4176415 -1.6979874 -2.2220595 -2.7285588
0003f0 7f 46 84 bf 0d 9e d0 3f 7f 72 de 3f ef 92 4b c0
       -1.0334014 1.6298233 1.7378691 -3.180843

variational_strategy.base_variational_strategy._variational_distribution.variational_mean f4 [20, 100]
000000 77 39 7e 96 76 0e 69 a0 5b 4d b0 a1 c1 e2 60 15
       -2.0536089e-25 -1.9740652e-19 -1.19467e-18 4.5415317e-26
000010 f3 ea 6b 22 67 9a be 95 06 f6 a6 15 81 ac 80 22
       3.197282e-18 -7.698399e-26 6.743502e-26 3.4877115e-18
000020 d8 aa 91 a0 f9 8e 73 16 ef 06 fc 15 c9 35 2a 16
       -2.467701e-19 1.9674498e-25 1.0179293e-25 1.3749462e-25
000030 9a 4f f9 21 85 75 00 17 fc 01 ad 18 30 58 85 17
       1.6893967e-18 4.150736e-25 4.4721456e-24 8.617185e-25
000040 4a 76 cb 16 94 de a8 19 4f e9 35 17 3b 64 cf 16
       3.287107e-25 1.7460691e-23 5.877873e-25 3.3505908e-25
000050 9d ea 82 16 1c 05 0b 17 d7 ce ed 16 20 48 94 15
       2.1150695e-25 4.491977e-25 3.841995e-25 5.989052e-26
000060 ac 14 49 16 84 d7 26 17 41 52 0b 14 1f 12 d3 9f
       1.6243174e-25 5.390951e-25 7.033928e-27 -8.9391955e-20
000070 c7 42 5c 17 92 0b cf 16 fe 1f c3 16 99 0d d3 17
       7.117012e-25 3.3449956e-25 3.152414e-25 1.3638988e-24
000080 16 8d 5f 16 55 c6 81 18 74 4c 03 16 f8 e3 b0 17
       1.8058315e-25 3.3545983e-24 1.060622e-25 1.1431281e-24
000090 66 06 83 15 c0 f0 ac 16 91 0c 02 17 38 bd 29 18
       5.2920574e-26 2.7940033e-25 4.2021127e-25 2.193827e-24
0000a0 84 41 65 16 f4 a7 84 17 0a 1c ad 19 3b 1e ae 16
       1.8519146e-25 8.572697e-25 1.7899106e-23 2.8130294e-25
0000b0 d3 78 88 97 b9 8e 23 15 c3 d5 23 17 c7 58 06 16
       -8.819294e-25 3.3030176e-26 5.2937946e-25 1.0852447e-25
0000c0 37 87 07 95 33 43 96 17 48 7c 80 96 10 7c 5a 15
       -2.73697e-26 9.710486e-25 -2.0757948e-25 4.4122617e-26
0000d0 13 ab ae 16 6f 34 c1 17 a1 36 83 16 52 03 29 18
       2.821918e-25 1.2485569e-24 2.1198667e-25 2.1844414e-24
0000e0 fe 8c 2f 17 01 09 d1 16 e4 f8 87 17 8d f7 a5 18
       5.6723507e-25 3.3771453e-25 8.786999e-25 4.2901463e-24
0000f0 ef cf 36 17 90 a5 72 16 c3 ea b2 16 4c ed 14 96
       5.906982e-25 1.9600847e-25 2.8905606e-25 -1.2030222e-25
000100 25 93 e9 16 67 72 e1 16 0b 46 a8 14 51 ec 7b 15
       3.7736041e-25 3.6422909e-25 1.6991292e-26 5.0875467e-26
000110 5c 43 1b 17 3f 18 bf 15 de 02 18 16 33 0b 6e 16
       5.016822e-25 7.718254e-26 1.2279367e-25 1.9229021e-25
000120 c9 88 84 17 66 f7 04 17 c7 c8 d6 17 25 79 d5 15
       8.5648295e-25 4.296376e-25 1.3880109e-24 8.622115e-26
000130 1a 00 54 16 a8 dd 16 16 11 94 d6 17 b9 8d e6 18
       1.7125256e-25 1.2186846e-25 1.3866803e-24 5.959671e-24
000140 cf 90 d5 96 6b 25 02 15 ba 03 46 17 c3 a9 b4 16
       -3.4503393e-25 2.628281e-26 6.3981954e-25 2.9187703e-25
000150 0c 19 cd 15 b2 6c 4e 94 0f bf 81 17 89 75 42 17
       8.283836e-26 -1.04217785e-26 8.38466e-25 6.283313e-25
000160 a5 20 29 17 77 6a a7 16 c0 2b bd 17 10 1b 5c 15
       5.464805e-25 2.7047494e-25 1.2224883e-24 4.4449995e-26
000170 2c a7 ee 19 3b 32 16 96 cb 96 0c 98 33 0e 02 18
       2.4676143e-23 -1.2132753e-25 -1.8170707e-24 1.6809275e-24
000180 ec 03 8b 16 3e 85 fe 16 82 1f e6 15 f4 b7 4a 17
       2.2459136e-25 4.112e-25 9.294597e-26 6.55019e-25
000190 58 ba 5a 38 7d e3 66 3f 42 c2 e7 bf 4e 91 30 3e
       5.2148796e-05 0.9019087 -1.8106158 0.1724293
0001a0 ea 8f 4e c0 6a b7 33 c0 19 10 20 bf fc 2e 30 bf
       -3.2275338 -2.8080697 -0.62524563 -0.6882169
0001b0 e8 8d 24 3f 09 b4 58 c0 c6 89 17 c0 8d 31 be bf
       0.6427903 -3.3859885 -2.367784 -1.4858872
0001c0 e9 46 62 40 ac a8 9b 3f 57 6f 26 40 1c 53 ae 40
       3.535578 1.216085 2.6005456 5.447645
0001d0 92 35 ca 3f 20 df e7 be a8 35 a2 40 d0 ec f7 bf
       1.5797598 -0.45287418 5.06905 -1.9369144
0001e0 96 c0 95 bf 74 5d 9d c0 8b 92 05 be 7c d2 11 40
       -1.1699398 -4.917658 -0.13044183 2.278472
0001f0 52 79 0c bf c2 93 2b bf b8 f3 a9 3f c2 43 df 3f
       -0.5487262 -0.67022336 1.3277502 1.7442553
000200 6b 66 57 40 aa 4c 46 bf 00 76 41 3f 30 82 f7 3d
       3.365626 -0.7746073 0.7557068 0.12085378
000210 4f ea e3 40 cd ca 8f c0 52 77 24 c0 8c fb 5f 40
       7.122352 -4.493506 -2.5697827 3.4997282
000220 65 09 55 40 aa 73 83 3f 47 4b 98 40 fa c0 5a 40
       3.3286984 1.0269673 4.759189 3.4180284
000230 d9 5c 1f 3f 80 d1 81 40 59 b9 db 3f 1e f4 6b 40
       0.6225105 4.0568237 1.7165939 3.6867747
000240 8f b3 07 41 7e bd 55 40 cd e2 d0 3f 46 81 22 c0
       8.481338 3.3396907 1.6319214 -2.5391402
000250 a3 11 93 40 b1 44 f9 3f 1b a9 88 40 17 9f c7 3f
       4.595903 1.9474088 4.2706428 1.5595425
000260 43 47 19 c0 4d 70 8d 40 2a 85 99 3f 28 2d c2 40
       -2.3949745 4.4199586 1.1993763 6.068012
000270 2c 2d 10 3c fa c4 91 40 e3 49 22 c0 00 cd 0c c0
       0.008799832 4.555295 -2.5357597 -2.2000122
000280 51 a1 6a c0 6c 2f c2 40 b1 a6 a3 40 27 de 7d 40
       -3.666096 6.068289 5.114098 3.966684
000290 7a 49 55 40 fc 16 1b 40 a1 b5 e0 3f b6 da 95 3f
       3.3326097 2.4232779 1.7555429 1.170737
0002a0 8f ed 76 c0 9d d7 6c 40 06 45 e0 3f 4b 84 85 bf
       -3.8582494 3.70066 1.7521064 -1.0430998
0002b0 73 fd ae 3e c8 8b 8f bf e4 ff 8f bf 9d a5 46 c0
       0.3417774 -1.1214533 -1.1249967 -3.1038582
0002c0 5e 42 9a c0 d6 b3 8c bf 13 63 3c 3e c0 48 90 3f
       -4.8206015 -1.0992382 0.18397169 1.1272202
0002d0 f7 f1 0b c0 8f 08 a4 40 f4 24 84 c0 34 f0 19 40
       -2.1866434 5.1260448 -4.129511 2.4052858
0002e0 f9 08 8e c0 de 71 49 40 77 e6 fd bf fa 7b 18 40
       -4.4385953 3.147575 -1.9835957 2.382567
0002f0 d4 5f a0 3f 24 d4 3a 40 16 da 39 40 03 42 ed 3f
       1.2529244 2.919198 2.903936 1.853577
000300 88 fa 11 c0 bf 17 85 40 4d 8c b5 bf 68 77 e1 bf
       -2.2809162 4.1591487 -1.4183441 -1.7614565
000310 80 42 ae bf c5 25 d5 bf 78 1f 03 c0 ed 8c 57 c0
       -1.3614044 -1.6652151 -2.0487957 -3.3679764
000320 37 84 b0 9b 15 4a d7 9b d4 e4 d6 9c 9d aa 99 a2
       -2.92022e-22 -3.561664e-22 -1.4220483e-21 -4.1651377e-18
000330 aa b0 5b a2 11 4a 8f 1d 20 82 0a 9e 80 17 a6 22
       -2.977356e-18 3.7928368e-21 -7.332568e-21 4.501927e-18
000340 16 23 25 9f 28 89 73 9b 90 c0 7d 9d d6 e9 41 9b
       -3.496913e-20 -2.0144806e-22 -3.3583824e-21 -1.6040142e-22
000350 0c ce ae 9b ff ad 93 21 15 a5 3c a4 fa cc 4e 19
       -2.891904e-22 1.0007164e-18 -4.090583e-17 1.0691345e-23
000360 4d a9 2f 1c e8 90 c6 9c 55 dd 2a 1e 2a dd bd 9a
       5.812146e-22 -1.3139998e-21 9.0454955e-21 -7.852588e-23
000370 82 a2 0a 9d 8a 38 0f 1c dd 56 99 9b 90 9e 32 9c
       -1.8348162e-21 4.7387806e-22 -2.536786e-22 -5.9100197e-22
000380 8a 90 64 9d 5f 57 8f 9b f0 dd c3 9b d6 d1 80 9d
       -3.0250274e-21 -2.3713828e-22 -3.2403468e-22 -3.4098283e-21
000390 6b ee b6 9c 9c a4 40 1b bf e9 86 9d 1c e6 e7 9c
       -1.2105379e-21 1.5935056e-22 -3.5711192e-21 -1.534578e-21
0003a0 05 f7 02 9d ab 84 01 9e c8 e4 66 9d 3f 4f 82 9a
       -1.7333063e-21 -6.856638e-21 -3.0558524e-21 -5.389477e-23
0003b0 77 a6 e5 9b 7f fe c8 19 37 ed 41 1c c0 13 ab 9c
       -3.7992447e-22 2.0782305e-23 6.4164936e-22 -1.1320936e-21
0003c0 ce fa a7 9b 67 13 93 9c fa ce 9b 1d 52 41 fc 1d
       -2.778991e-22 -9.732659e-22 4.1242167e-21 6.6771384e-21
0003d0 57 4a 4c 1d f4 df 37 9b c2 e9 4c 9c db a7 25 9b
       2.7037608e-21 -1.5209768e-22 -6.7800063e-22 -1.3702717e-22
0003e0 57 4f 07 9c 9a 7a 14 1c 30 8c 84 9e 5b 4b 8f 9d
       -4.4770297e-22 4.912755e-22 -1.4034024e-20 -3.79297e-21
0003f0 96 5e a0 9c d0 ef 6c 1b 70 f7 25 9c 0c 82 d4 1c
       -1.0612362e-21 1.959895e-22 -5.4913726e-22 1.40626e-21

variational_strategy.base_variational_strategy._variational_distribution.chol_variational_covar f4 [20, 100, 100]
000000 00 00 80 3f 00 00 00 00 00 00 00 00 00 00 00 00
       1.0 0.0 0.0 0.0
000010 00 00 00 00 00 00 00 00 00 00 00 00 00 00 00 00
       0.0 0.0 0.0 0.0
000020 00 00 00 00 00 00 00 00 00 00 00 00 00 00 00 00
       0.0 0.0 0.0 0.0
000030 00 00 00 00 00 00 00 00 00 00 00 00 00 00 00 00
       0.0 0.0 0.0 0.0
000040 00 00 00 00 00 00 00 00 00 00 00 00 00 00 00 00
       0.0 0.0 0.0 0.0
000050 00 00 00 00 00 00 00 00 00 00 00 00 00 00 00 00
       0.0 0.0 0.0 0.0
000060 00 00 00 00 00 00 00 00 00 00 00 00 00 00 00 00
       0.0 0.0 0.0 0.0
000070 00 00 00 00 00 00 00 00 00 00 00 00 00 00 00 00
       0.0 0.0 0.0 0.0
000080 00 00 00 00 00 00 00 00 00 00 00 00 00 00 00 00
       0.0 0.0 0.0 0.0
000090 00 00 00 00 00 00 00 00 00 00 00 00 00 00 00 00
       0.0 0.0 0.0 0.0
0000a0 00 00 00 00 00 00 00 00 00 00 00 00 00 00 00 00
       0.0 0.0 0.0 0.0
0000b0 00 00 00 00 00 00 00 00 00 00 00 00 00 00 00 00
       0.0 0.0 0.0 0.0
0000c0 00 00 00 00 00 00 00 00 00 00 00 00 00 00 00 00
       0.0 0.0 0.0 0.0
0000d0 00 00 00 00 00 00 00 00 00 00 00 00 00 00 00 00
       0.0 0.0 0.0 0.0
0000e0 00 00 00 00 00 00 00 00 00 00 00 00 00 00 00 00
       0.0 0.0 0.0 0.0
0000f0 00 00 00 00 00 00 00 00 00 00 00 00 00 00 00 00
       0.0 0.0 0.0 0.0
000100 00 00 00 00 00 00 00 00 00 00 00 00 00 00 00 00
       0.0 0.0 0.0 0.0
000110 00 00 00 00 00 00 00 00 00 00 00 00 00 00 00 00
       0.0 0.0 0.0 0.0
000120 00 00 00 00 00 00 00 00 00 00 00 00 00 00 00 00
       0.0 0.0 0.0 0.0
000130 00 00 00 00 00 00 00 00 00 00 00 00 00 00 00 00
       0.0 0.0 0.0 0.0
000140 00 00 00 00 00 00 00 00 00 00 00 00 00 00 00 00
       0.0 0.0 0.0 0.0
000150 00 00 00 00 00 00 00 00 00 00 00 00 00 00 00 00
       0.0 0.0 0.0 0.0
000160 00 00 00 00 00 00 00 00 00 00 00 00 00 00 00 00
       0.0 0.0 0.0 0.0
000170 00 00 00 00 00 00 00 00 00 00 00 00 00 00 00 00
       0.0 0.0 0.0 0.0
000180 00 00 00 00 00 00 00 00 00 00 00 00 00 00 00 00
       0.0 0.0 0.0 0.0
000190 df 1e 00 80 00 00 80 3f 00 00 00 00 00 00 00 00
       -1.1074e-41 1.0 0.0 0.0
0001a0 00 00 00 00 00 00 00 00 00 00 00 00 00 00 00 00
       0.0 0.0 0.0 0.0
0001b0 00 00 00 00 00 00 00 00 00 00 00 00 00 00 00 00
       0.0 0.0 0.0 0.0
0001c0 00 00 00 00 00 00 00 00 00 00 00 00 00 00 00 00
       0.0 0.0 0.0 0.0
0001d0 00 00 00 00 00 00 00 00 00 00 00 00 00 00 00 00
       0.0 0.0 0.0 0.0
0001e0 00 00 00 00 00 00 00 00 00 00 00 00 00 00 00 00
       0.0 0.0 0.0 0.0
0001f0 00 00 00 00 00 00 00 00 00 00 00 00 00 00 00 00
       0.0 0.0 0.0 0.0
000200 00 00 00 00 00 00 00 00 00 00 00 00 00 00 00 00
       0.0 0.0 0.0 0.0
000210 00 00 00 00 00 00 00 00 00 00 00 00 00 00 00 00
       0.0 0.0 0.0 0.0
000220 00 00 00 00 00 00 00 00 00 00 00 00 00 00 00 00
       0.0 0.0 0.0 0.0
000230 00 00 00 00 00 00 00 00 00 00 00 00 00 00 00 00
       0.0 0.0 0.0 0.0
000240 00 00 00 00 00 00 00 00 00 00 00 00 00 00 00 00
       0.0 0.0 0.0 0.0
000250 00 00 00 00 00 00 00 00 00 00 00 00 00 00 00 00
       0.0 0.0 0.0 0.0
000260 00 00 00 00 00 00 00 00 00 00 00 00 00 00 00 00
       0.0 0.0 0.0 0.0
000270 00 00 00 00 00 00 00 00 00 00 00 00 00 00 00 00
       0.0 0.0 0.0 0.0
000280 00 00 00 00 00 00 00 00 00 00 00 00 00 00 00 00
       0.0 0.0 0.0 0.0
000290 00 00 00 00 00 00 00 00 00 00 00 00 00 00 00 00
       0.0 0.0 0.0 0.0
0002a0 00 00 00 00 00 00 00 00 00 00 00 00 00 00 00 00
       0.0 0.0 0.0 0.0
0002b0 00 00 00 00 00 00 00 00 00 00 00 00 00 00 00 00
       0.0 0.0 0.0 0.0
0002c0 00 00 00 00 00 00 00 00 00 00 00 00 00 00 00 00
       0.0 0.0 0.0 0.0
0002d0 00 00 00 00 00 00 00 00 00 00 00 00 00 00 00 00
       0.0 0.0 0.0 0.0
0002e0 00 00 00 00 00 00 00 00 00 00 00 00 00 00 00 00
       0.0 0.0 0.0 0.0
0002f0 00 00 00 00 00 00 00 00 00 00 00 00 00 00 00 00
       0.0 0.0 0.0 0.0
000300 00 00 00 00 00 00 00 00 00 00 00 00 00 00 00 00
       0.0 0.0 0.0 0.0
000310 00 00 00 00 00 00 00 00 00 00 00 00 00 00 00 00
       0.0 0.0 0.0 0.0
000320 26 42 00 80 81 82 06 88 00 00 80 3f 00 00 00 00
       -2.373e-41 -4.0477565e-34 1.0 0.0
000330 00 00 00 00 00 00 00 00 00 00 00 00 00 00 00 00
       0.0 0.0 0.0 0.0
000340 00 00 00 00 00 00 00 00 00 00 00 00 00 00 00 00
       0.0 0.0 0.0 0.0
000350 00 00 00 00 00 00 00 00 00 00 00 00 00 00 00 00
       0.0 0.0 0.0 0.0
000360 00 00 00 00 00 00 00 00 00 00 00 00 00 00 00 00
       0.0 0.0 0.0 0.0
000370 00 00 00 00 00 00 00 00 00 00 00 00 00 00 00 00
       0.0 0.0 0.0 0.0
000380 00 00 00 00 00 00 00 00 00 00 00 00 00 00 00 00
       0.0 0.0 0.0 0.0
000390 00 00 00 00 00 00 00 00 00 00 00 00 00 00 00 00
       0.0 0.0 0.0 0.0
0003a0 00 00 00 00 00 00 00 00 00 00 00 00 00 00 00 00
       0.0 0.0 0.0 0.0
0003b0 00 00 00 00 00 00 00 00 00 00 00 00 00 00 00 00
       0.0 0.0 0.0 0.0
0003c0 00 00 00 00 00 00 00 00 00 00 00 00 00 00 00 00
       0.0 0.0 0.0 0.0
0003d0 00 00 00 00 00 00 00 00 00 00 00 00 00 00 00 00
       0.0 0.0 0.0 0.0
0003e0 00 00 00 00 00 00 00 00 00 00 00 00 00 00 00 00
       0.0 0.0 0.0 0.0
0003f0 00 00 00 00 00 00 00 00 00 00 00 00 00 00 00 00
       0.0 0.0 0.0 0.0

mean_module.constant f4 [20, 1]
000000 c8 05 0a ab 5e 7f 94 3d 88 c7 0a 2d ef 54 16 ab
       -4.903547e-13 0.07250856 7.888697e-12 -5.3408574e-13
000010 b4 0b 29 2c a5 0b 9f ac 40 da 8b ab 0b 73 22 bd
       2.402284e-12 -4.5203446e-12 -9.937121e-13 -0.039660495
000020 ca 63 98 ae 24 47 1a ae fb 2a 0f 3f 1d ba 93 ad
       -6.929886e-11 -3.507873e-11 0.5592496 -1.6794616e-11
000030 ba e1 71 2b 85 c0 30 2f a2 10 a8 be 64 27 9a 3e
       8.593366e-13 1.6075503e-10 -0.3282519 0.30108178
000040 86 b5 7c 3f ce 34 bf bc 82 81 89 bc 2c bf 8d 3e
       0.9871448 -0.023340609 -0.016785387 0.27684915

covar_module.raw_outputscale f4 [20]
000000 81 8e c2 c1 19 c9 0e c0 49 5e c0 c1 ab 62 bd c1
       -24.319582 -2.231024 -24.046038 -23.673178
000010 de ab bb c1 b5 d6 be c1 3c 3b bd c1 d0 3d b0 bf
       -23.45892 -23.854837 -23.653923 -1.3768864
000020 93 62 c1 c1 2b 7d c4 c1 f8 ac 52 bf dd df bf c1
       -24.173132 -24.561117 -0.8229518 -23.984308
000030 2d 6e c1 c1 52 78 bf c1 3d a8 09 c0 75 8b 37 c0
       -24.178797 -23.93375 -2.1508934 -2.8678868
000040 48 a8 fd c0 87 cc 51 c0 64 22 61 c0 b3 32 33 c0
       -7.926792 -3.2781084 -3.517724 -2.7999694

covar_module.base_kernel.raw_lengthscale f4 [20, 1, 13]
000000 54 15 1c bf 02 7d ec 3f dd 75 09 40 4e 66 56 bf
       -0.60970044 1.8475649 2.1478188 -0.83749855
000010 ca 97 56 bf 50 77 64 bf 43 22 65 bf e3 75 82 bf
       -0.8382536 -0.89244556 -0.89505404 -1.0192226
000020 22 d3 71 bf 54 cd 41 bf 3a 19 56 bf a5 ee 70 bf
       -0.9446279 -0.7570393 -0.8363224 -0.9411414
000030 13 c2 50 bf 34 22 75 3f 08 af b6 40 a1 b1 2b 41
       -0.81546134 0.95755315 5.708866 10.730866
000040 d0 e4 68 41 7b d7 4f 41 c1 09 53 41 d0 71 7e 41
       14.555862 12.990108 13.189881 15.902786
000050 ae 87 30 41 52 11 f4 41 ad 7b 27 41 ca 49 75 41
       11.033125 30.508457 10.467694 15.330515
000060 8a 49 3e 41 1a 60 8a 41 a1 a1 86 bf 7b d8 2c bf
       11.892954 17.296925 -1.0518075 -0.67517823
000070 d5 0e 0b bf a1 af 83 bf 61 e3 97 bf f7 32 9c bf
       -0.54319507 -1.0287973 -1.1866266 -1.2203053
000080 d2 cb 91 bf d3 e1 94 bf 5d 39 99 bf 56 4c 92 bf
       -1.1390326 -1.1631416 -1.1970631 -1.1429546
000090 9d 02 96 bf 59 77 92 bf f8 3d 9d bf eb e9 a0 bf
       -1.1719548 -1.1442672 -1.2284536 -1.2571386
0000a0 99 2e 7a bf 2e 84 ca be 4c 17 ac bf 04 9b af bf
       -0.9772735 -0.3955397 -1.344461 -1.3719182
0000b0 ee 94 ae bf 1a 11 a9 bf 3e 06 af bf 8f 94 ad bf
       -1.36392 -1.3208344 -1.367378 -1.3560961
0000c0 9c 04 8c bf 76 d1 9c bf 2d aa a3 bf 04 fb 95 bf
       -1.0938907 -1.2251422 -1.2786309 -1.1717229
0000d0 ed c7 6b bf ef ad 19 bf a4 de b1 40 c2 72 83 be
       -0.9210194 -0.60031027 5.558428 -0.2567349
0000e0 c2 34 d0 be da 4c 60 bf c7 2c d3 be fc e8 52 be
       -0.4066525 -0.87617266 -0.412451 -0.20596689
0000f0 39 c7 b0 be a1 9d b0 be 5f 58 99 be d0 d4 2c 3e
       -0.34526995 -0.3449526 -0.29950234 0.16878057
000100 14 ec 80 be 1e 78 b7 be f6 1e 34 40 26 18 1f 40
       -0.25180113 -0.3583383 2.8143897 2.485849
000110 20 6b 83 bf ea 65 2c bf e8 9a 37 bf 49 60 63 bf
       -1.0267067 -0.6734301 -0.71720743 -0.88818794
000120 43 7c 1d bf 57 4e 6c bf 81 60 68 bf 58 2f 56 bf
       -0.61517733 -0.9230704 -0.90772253 -0.8366599
000130 a4 a0 71 bf ab 96 54 bf 6d 3e ba bf bf fc c3 bf
       -0.94385743 -0.830424 -1.4550301 -1.5311507
000140 71 f5 61 bf 1b c3 cf bf 83 56 be bf 2e 58 c3 bf
       -0.8826514 -1.6231416 -1.4870151 -1.5261285
000150 9c 56 c3 bf 03 68 9b bf 78 84 bd bf ed 47 c3 bf
       -1.5260806 -1.2141117 -1.4806051 -1.5256325
000160 7c 63 c3 bf 6b ed bb bf 80 20 c0 bf 42 04 a8 3e
       -1.5264735 -1.4681829 -1.5009918 0.32815748
000170 cf 94 17 41 ca d0 e2 40 5e d3 d2 40 64 6d 20 41
       9.47383 7.087987 6.5883017 10.026707
000180 9c 69 f7 40 65 05 11 41 36 f4 0a 41 91 a4 ba 41
       7.731642 9.063817 8.684622 23.330355
000190 d7 55 7a 41 70 1a 51 41 ca ee 2e 41 4a ba a9 41
       15.645957 13.068954 10.933298 21.215961
0001a0 25 45 a9 bf 6a 5f 41 bf 24 a0 20 bf 18 2b c8 bf
       -1.3224226 -0.75536215 -0.62744355 -1.5638151
0001b0 70 0e 37 bf f9 6e b8 bf 21 0c c2 bf cc 8c b6 bf
       -0.71506405 -1.4408866 -1.5159951 -1.4261718
0001c0 62 19 b9 bf 7d 72 b0 bf 2f 08 c1 bf 54 77 b5 bf
       -1.4460871 -1.3784939 -1.5080622 -1.4177041
0001d0 ef 46 16 bf a1 89 e6 3d 25 a9 8e 40 aa a8 82 40
       -0.58701986 0.112567194 4.4581475 4.083089
0001e0 9a 7a 6c be e3 c7 e1 be 13 17 0b be 25 5e b6 be
       -0.23093644 -0.44097814 -0.13583021 -0.35618702
0001f0 8b 65 67 be b5 93 6e bc 17 90 10 bf 95 a8 13 bf
       -0.2259733 -0.014561583 -0.56469864 -0.5767911
000200 89 66 5a be e4 ba ba be 5e e6 68 3e a1 5f 15 41
       -0.21328177 -0.3647071 0.22744128 9.335847
000210 05 39 0c 41 f1 14 ba 40 39 d4 00 41 c7 bc c6 40
       8.763921 5.8150563 8.051812 6.210544
000220 e8 54 9f 40 07 66 bc 41 de 05 26 42 48 1e ff 40
       4.9791145 23.549818 41.50573 7.9724464
000230 6f 2a 28 41 45 f8 02 41 04 25 3f 41 d4 78 0b bf
       10.51036 8.185613 11.946537 -0.54481244
000240 41 c6 2b 3f 1e 8b b3 3f 80 c7 51 bf 1f eb 91 bf
       0.67099386 1.402683 -0.8194504 -1.1399878
000250 54 2d 70 bf d9 94 4e bf 8b 58 8b bf 5e 3e 99 bf
       -0.93819165 -0.80695873 -1.0886396 -1.1972158
000260 5d ff 93 bf 53 71 86 bf a2 70 a2 bf 4a 41 98 bf
       -1.1562306 -1.0503334 -1.2690623 -1.1894925
000270 4a 2c 52 3f e2 cf 40 40 45 cb 3b 40 c4 93 ab 3f
       0.8209883 3.0126882 2.9342816 1.340447
000280 51 94 00 3f a0 09 40 3f 27 d8 13 3e 18 6a 4d 3f
       0.5022631 0.75014687 0.14437924 0.8024001
000290 36 f8 b7 3f a0 89 2e 3f 25 51 52 3f 52 bc 86 3f
       1.4372623 0.6817875 0.82155067 1.0526221
0002a0 37 55 5b 3f 2d 02 12 c0 85 0c cc bf ec dd 4a 41
       0.856769 -2.2813828 -1.5941321 12.67918
0002b0 80 de 91 bf 7a 10 3b bf 3f 61 1f bf 0f ca a1 bf
       -1.1396027 -0.73072016 -0.6225776 -1.2639788
0002c0 76 cd 63 bf 18 1c 46 bf 4f fd eb bf 9f f0 ed bf
       -0.88985384 -0.7738662 -1.8436679 -1.8589057
0002d0 e7 e3 c9 bf ab 71 d8 bf c2 4e 2c 40 4f b8 b3 40
       -1.5772675 -1.6909689 2.692307 5.6162486
0002e0 7f da 12 41 29 78 61 41 73 11 89 41 cb 36 7c 41
       9.178344 14.091836 17.13352 15.763377
0002f0 16 a5 7e 41 12 64 83 41 2e cc 6d 41 45 97 34 41
       15.915304 16.423862 14.862349 11.286931
000300 95 b2 70 41 3a 08 53 41 22 b9 54 41 e9 be 15 40
       15.043599 13.189508 13.295198 2.3397772
000310 fb 90 22 42 20 c6 09 41 77 6f 9c 41 3e 4b 53 41
       40.641582 8.61087 19.554426 13.20587
000320 62 e3 92 41 35 e0 87 41 5e 65 58 41 b3 43 a7 41
       18.361027 16.984476 13.524748 20.908056
000330 5e 3b a1 41 fa ea a7 41 6a 23 3d 41 c4 50 8d 41
       20.153988 20.989735 11.821146 17.664436
000340 b9 a8 93 41 9e 4a ff 42 2d 61 cd 42 aa a6 23 41
       18.457384 127.64574 102.6898 10.228189
000350 42 9a 8d 41 1a b8 1a 41 f4 d4 1a 41 0d 11 2b 41
       17.700321 9.669947 9.6769905 10.691663
000360 30 08 90 41 3e bb 52 41 cc 41 1f 41 dc a3 82 41
       18.003998 13.170713 9.953564 16.33001
000370 e5 01 19 41 75 96 ec 40 6d f6 d8 bf 43 27 33 43
       9.562963 7.3933663 -1.6950203 179.15337
000380 9c 50 08 40 90 a3 08 40 c8 3e e8 3f 41 45 b5 3f
       2.12992 2.134983 1.8144159 1.416176
000390 bc ed 9b 3f 96 e9 8e 40 8b 5f 39 bf b1 1c 3f 40
       1.2181926 4.466014 -0.7241141 2.9861262
0003a0 66 3e be be b2 ba 0b 40 9f 20 aa 40 d5 21 b0 40
       -0.3715698 2.18327 5.316482 5.50413
0003b0 46 1e 1e 42 2e 74 e8 40 9d 64 c1 40 74 02 b1 40
       39.529564 7.264182 6.043532 5.5315495
0003c0 f5 07 33 40 87 16 ce 40 f1 fa 05 bf 00 96 8e 40
       2.7973607 6.44025 -0.5233603 4.4558105
0003d0 77 d0 b7 be 8b 80 9d 3f 88 c5 b4 40 2b a2 94 40
       -0.35901234 1.2304853 5.6491127 4.644796
0003e0 58 47 0e 41 07 4a 43 41 a5 92 aa 41 9a e3 ae 41
       8.892418 12.205573 21.321604 21.861134
0003f0 d0 3d 8a 41 a6 3c a8 41 d9 eb 9f 41 cc d6 9f 41
       17.280182 21.029613 19.99016 19.979881
