state/mogp_model_lmc_1_state.pth (torch, 919806 bytes, 7 tensors)

variational_strategy.lmc_coefficients f4 [20, 20]
0	0xa91bfca7	-3.4636055e-14
1	0xa9196cea	-3.4067292e-14
2	0xa9b6b9b0	-8.114635e-14
3	0xaa8d53b8	-2.5104723e-13
4	0xab49fdb9	-7.1761656e-13
5	0xaa66e81f	-2.0508637e-13
6	0xabfbf9d0	-1.790396e-12
7	0xab67eaf7	-8.2393765e-13
8	0x2c925f60	4.1601583e-12
9	0x2d3151f5	1.0079483e-11
10	0x2c998b8f	4.3640157e-12
11	0x29d3a2b8	9.3985095e-14
12	0x2ca65d23	4.728344e-12
13	0x2daeba57	1.9864261e-11
14	0x2d9c4303	1.7764906e-11
15	0xaca4182a	-4.663843e-12
16	0xad9b4960	-1.7654045e-11
17	0xadc1ee4e	-2.2047388e-11
18	0xadb1ad8e	-2.0199644e-11
19	0xad15a72a	-8.506787e-12
20	0x3e9e2dd6	0.30894345
21	0x3ea51be0	0.3224783
22	0x3e8e8cf9	0.2784193
23	0x3e500e81	0.20318033
24	0x3e01e8ea	0.12686506
25	0x3d761af3	0.060084295
26	0x3bad60d5	0.0052910843
27	0xbd1b823d	-0.037966
28	0xbd91ff99	-0.071288295
29	0xbdc51d4d	-0.09624729
30	0xbde9a56d	-0.114085056
31	0xbe014221	-0.12622882
32	0xbe092588	-0.13393223
33	0xbe0d8aa1	-0.13822414
34	0xbe0f2a03	-0.1398087
35	0xbe0e93d6	-0.13923582
36	0xbe0c5e83	-0.13707928
37	0xbe08ea35	-0.13370593
38	0xbe047b14	-0.12937576
39	0xbdfe9a47	-0.1243177
40	0xa7557ead	-2.962836e-15
41	0xa752e4d3	-2.92674e-15
42	0xa8623492	-1.25569195e-14
43	0xa91492fa	-3.2990083e-14
44	0xa9de68f2	-9.8769856e-14
45	0xa97a27f9	-5.5545822e-14
46	0xaae6bce0	-4.0987266e-13
47	0x2949edb2	4.4837133e-14
48	0x2b82e40c	9.300351e-13
49	0x2bdeb7dc	1.582508e-12
50	0x2b40c013	6.847866e-13
51	0xaab51d42	-3.217236e-13
52	0x28ed6ea7	2.6360273e-14
53	0x2bba551a	1.3239715e-12
54	0x2ba246c7	1.1530437e-12
55	0xaa69f9f9	-2.0781284e-13
56	0xabb4a80e	-1.2836414e-12
57	0xabf1b543	-1.717439e-12
58	0xac289510	-2.3956982e-12
59	0xabc62cbd	-1.4081164e-12
60	0xb9ca01a1	-0.00038529656
61	0x3b2189da	0.0024648816
62	0xbbe40401	-0.006958485
63	0xbc16e2fe	-0.009209393
64	0xbc3bae81	-0.011455179
65	0xbc72c569	-0.014817574
66	0xbc8eb5ed	-0.017420733
67	0xbc955327	-0.018228127
68	0xbc87acf3	-0.01656196
69	0xbc34ca92	-0.011034625
70	0xbb4d04ec	-0.0031283451
71	0x3c05bcae	0.0081626605
72	0x3cbe9a01	0.023266794
73	0x3d2dec1e	0.042461507
74	0x3d8364a4	0.0641568
75	0x3db57ebe	0.08862065
76	0x3debb208	0.11508566
77	0x3e11b985	0.14230926
78	0x3e2ec475	0.1706713
79	0x3e4c9b65	0.19981153
80	0xaab0cf26	-3.1407618e-13
81	0xaa9ede21	-2.822057e-13
82	0xaba953d8	-1.2031444e-12
83	0xac81bcc5	-3.687358e-12
84	0xad4c47ce	-1.1612001e-11
85	0xacf4e012	-6.959774e-12
86	0xae5a214c	-4.9597035e-11
87	0x2c730033	3.4532488e-12
88	0x2ef4ebe7	1.113774e-10
89	0x2f3de0c7	1.7269307e-10
90	0x2eb80290	8.3678064e-11
91	0xac73b2fa	-3.4631729e-12
92	0x2da47e9c	1.8700867e-11
93	0x2effcd71	1.1632551e-10
94	0x2ebc8bb0	8.574064e-11
95	0xae05acc0	-3.039413e-11
96	0xaedd4a55	-1.00631205e-10
97	0xaf09c9c0	-1.2531753e-10
98	0xaf7f1df9	-2.3202763e-10
99	0xaf9845f7	-2.7698352e-10
100	0x2a97e03f	2.697859e-13
101	0x2aab6b6a	3.0450235e-13
102	0x2b368413	6.484268e-13
103	0x2bd44e77	1.5085284e-12
104	0x2d4ae8e6	1.15340845e-11
105	0x2dab5a01	1.9480419e-11
106	0x2e8552b0	6.062828e-11
107	0xae22cff6	-3.7019242e-11
108	0xaef39a93	-1.10778185e-10
109	0xaefda0a0	-1.1533641e-10
110	0xae8196a5	-5.893001e-11
111	0xac333e34	-2.547196e-12
112	0x2db78858	2.086524e-11
113	0xad623f54	-1.2860674e-11
114	0x2c671a02	3.2841512e-12
115	0x2e38ee08	4.204817e-11
116	0x2e5eaaf8	5.0628807e-11
117	0x2e79bfc8	5.678638e-11
118	0x2e9c4a5e	7.107269e-11
119	0x2e403162	4.3699606e-11
120	0x2bfa64d8	1.7791558e-12
121	0x2c85956c	3.7966765e-12
122	0xad25edb8	-9.431948e-12
123	0xadd7936d	-2.450814e-11
124	0x2c86fc91	3.8365496e-12
125	0x2e4c1265	4.6400567e-11
126	0x2f0b6060	1.2676216e-10
127	0xaec71aa2	-9.054203e-11
128	0xb08c2c3f	-1.0198916e-09
129	0xb10b945a	-2.031149e-09
130	0xb11603bf	-2.1830002e-09
131	0x2f9cd224	2.8525549e-10
132	0x31c1eb85	5.6438147e-09
133	0x31d0f226	6.081126e-09
134	0x31c4653d	5.7158602e-09
135	0x31f353e2	7.081767e-09
136	0x30be2717	1.383543e-09
137	0xb16c649a	-3.4399705e-09
138	0xb20f6731	-8.3471585e-09
139	0xb2839528	-1.5318236e-08
140	0xbb102db8	-0.0021999907
141	0xba49ea60	-0.0007702466
142	0xbd0c74fa	-0.034291245
143	0xbdb8b660	-0.0901916
144	0xbe1a447f	-0.15065192
145	0xbe53e454	-0.20692569
146	0xbe83a6de	-0.25713247
147	0xbe99ca55	-0.3003718
148	0xbeacbea6	-0.33739203
149	0xbebd3fd0	-0.36962748
150	0xbecb6fa2	-0.39733607
151	0xbed7d737	-0.42156383
152	0xbee295b9	-0.44254854
153	0xbeebede8	-0.46079946
154	0xbef4139f	-0.4767122
155	0xbefb3970	-0.4906726
156	0xbf00b2cd	-0.5027283
157	0xbf0351b3	-0.5129654
158	0xbf0582fb	-0.52152985
159	0xbf0754ad	-0.5286358
160	0x37a4e28d	1.965582e-05
161	0x3b724c2c	0.0036971672
162	0xbd5034e7	-0.0508317
163	0xbdde97b3	-0.10868778
164	0xbe1f1f01	-0.15539171
165	0xbe411d9b	-0.1885895
166	0xbe556883	-0.2084065
167	0xbe5ebc1f	-0.2175145
168	0xbe5f9b83	-0.21836667
169	0xbe5982d0	-0.21241307
170	0xbe4ecec9	-0.2019607
171	0xbe40c691	-0.18825747
172	0xbe30b039	-0.17254724
173	0xbe1f47d7	-0.15554748
174	0xbe0d39be	-0.13791558
175	0xbdf6c2a7	-0.12048846
176	0xbdd41d6d	-0.10357175
177	0xbdb2a508	-0.087228835
178	0xbd932d79	-0.071864076
179	0xbd6bc37c	-0.057559475
180	0x39a5672c	0.00031548121
181	0xbb4b06d4	-0.0030979412
182	0xbc5bddba	-0.013419563
183	0xbcfacf09	-0.0306163
184	0xbd46c6d5	-0.048529465
185	0xbd88569e	-0.06657146
186	0xbdac314c	-0.0840784
187	0xbdcf56eb	-0.10124
188	0xbdf115e3	-0.11771753
189	0xbe0881fa	-0.13330832
190	0xbe168e32	-0.1470268
191	0xbe2232d6	-0.15839705
192	0xbe2bf4d2	-0.1679261
193	0xbe346356	-0.17616019
194	0xbe3b4d93	-0.18291311
195	0xbe405893	-0.18783788
196	0xbe44277d	-0.19155689
197	0xbe471c4e	-0.19444391
198	0xbe492a98	-0.19645154
199	0xbe4a4856	-0.19754156
200	0x2c867ce2	3.822374e-12
201	0x2c09daa4	1.959024e-12
202	0x2d5136e2	1.1892461e-11
203	0x2ddec3d7	2.5325448e-11
204	0x2e0aa455	3.1523523e-11
205	0xadca764b	-2.3017274e-11
206	0xace22a44	-6.4279988e-12
207	0x2f2ddde7	1.5813094e-10
208	0x2f8a6949	2.5176863e-10
209	0x2fc5861a	3.5929376e-10
210	0x2eea4be8	1.0654572e-10
211	0xb04e6747	-7.508913e-10
212	0xb1b82a30	-5.359901e-09
213	0xb1f5634b	-7.1417268e-09
214	0xb1b493ab	-5.2554774e-09
215	0x30dbb2ff	1.5985221e-09
216	0x32293b3c	9.850563e-09
217	0x32112748	8.449042e-09
218	0x31807333	3.738387e-09
219	0xb0c85e3c	-1.4578698e-09
220	0x394bb665	0.00019427536
221	0xb870ed77	-5.7441615e-05
222	0x3cb23c16	0.021757167
223	0x3d4509a4	0.048104897
224	0x3d755d5c	0.059903488
225	0x3d5f7a9b	0.054560285
226	0x3d15bd3f	0.036557432
227	0x3c1de3af	0.0096368035
228	0xbcb685c7	-0.022280587
229	0xbd632050	-0.055450737
230	0xbdb68a6b	-0.0891312
231	0xbdf99fcb	-0.12188681
232	0xbe1bb7bd	-0.1520681
233	0xbe3736a2	-0.17891935
234	0xbe4f6260	-0.20252371
235	0xbe6437f5	-0.22286971
236	0xbe75ee23	-0.24016623
237	0xbe8280fd	-0.25489035
238	0xbe88cb4e	-0.2671761
239	0xbe8df5b0	-0.27726507
240	0xb8635fe7	-5.4210333e-05
241	0xbb592828	-0.0033135507
242	0x3a872669	0.001031113
243	0x3c63c76d	0.013902527
244	0x3ce03817	0.027370496
245	0x3d1c100c	0.03810124
246	0x3d3bcf10	0.045851767
247	0x3d501fcb	0.05081157
248	0x3d5c276a	0.053748526
249	0x3d625bc4	0.055263296
250	0x3d662994	0.056191996
251	0x3d681b68	0.05666676
252	0x3d68f891	0.056877676
253	0x3d68349e	0.056690805
254	0x3d66f8f5	0.056389768
255	0x3d654d09	0.05598167

variational_strategy.base_variational_strategy.inducing_points f4 [20, 100, 13]
0	0x3fa9ebc4	1.3275075
1	0x3f737d7e	0.9511336
2	0x3f893b32	1.072119
3	0xbeed7022	-0.46374613
4	0xbec779a1	-0.38959983
5	0x3ec25898	0.37958217
6	0xbeedb8c1	-0.4643002
7	0xbeffcce3	-0.49961004
8	0xbecbf6d1	-0.39836743
9	0x3f7d7a43	0.9901468
10	0xbed9515c	-0.42444885
11	0xbed93f32	-0.42431027
12	0x3eb5a4e7	0.35477373
13	0x3f0160c1	0.5053826
14	0x3f45eb00	0.77311707
15	0xbf10b481	-0.5652543
16	0x3eb1a60a	0.3469699
17	0xbeeb264c	-0.45927656
18	0x3f1a4a1c	0.6026933
19	0x3e8ab153	0.27088413
20	0x3ec62565	0.38700405
21	0xbefcf3ce	-0.49404758
22	0xbf043168	-0.5163789
23	0x3eafc050	0.3432641
24	0x3e85f1bb	0.26160988
25	0xbebb2911	-0.3655477
26	0x3fe6b949	1.8025295
27	0xbeee6d1d	-0.46567622
28	0x3f92353b	1.1422495
29	0x3f1b0eff	0.6056976
30	0x3f1d1c11	0.6137095
31	0xbf1b331d	-0.6062487
32	0x3fb720c7	1.4306878
33	0x3f1f67b4	0.62267613
34	0x3fd93e9c	1.6972232
35	0x3f1ba5cd	0.60799867
36	0x3fc8d57e	1.5690153
37	0x3f1563b3	0.58355254
38	0xbfd4fb57	-1.6639203
39	0xbe3f958c	-0.18709391
40	0x3f690e47	0.9103741
41	0x3f177368	0.5916047
42	0xbfed5f6e	-1.8544748
43	0xbfed5e8d	-1.854448
44	0x3fede876	1.8586566
45	0xbfed7e94	-1.8554254
46	0xbfedca7f	-1.8577422
47	0xbfec5922	-1.8464701
48	0xbfecc183	-1.8496555
49	0xbfee75ae	-1.8629663
50	0xbfec8cb9	-1.8480445
51	0x3fec40e0	1.8457298
52	0xc0247915	-2.5698903
53	0x402d8416	2.711187
54	0xbfe29a54	-1.7703347
55	0xc01a796e	-2.4136615
56	0xc02167ea	-2.5219674
57	0x401b265b	2.424216
58	0xc01b9685	-2.431062
59	0xc01a8987	-2.414644
60	0xc01ac93c	-2.4185324
61	0xc01a92e9	-2.4152167
62	0xc01a8a1d	-2.4146798
63	0xc01ae601	-2.4202883
64	0x401a6690	2.41251
65	0x3f708f48	0.9396863
66	0x3fcaf4bc	1.5855937
67	0xbfc520a0	-1.5400581
68	0xbf5e4320	-0.86821175
69	0x3f26c755	0.65147907
70	0x3f4a8413	0.7910778
71	0x3ed35852	0.4127832
72	0xbf572011	-0.84033304
73	0x3f300fcf	0.6877412
74	0x3f2f490c	0.68470836
75	0x3f1d79f6	0.6151422
76	0xbf4bfc05	-0.79681426
77	0x3f533be7	0.8251328
78	0x3fc7794b	1.5583891
79	0x408449e3	4.1340194
80	0xc0505589	-3.2552207
81	0xbf39ceb0	-0.72581005
82	0x3f40975e	0.7523097
83	0x3f3c6903	0.73597735
84	0xbf430cdf	-0.76191515
85	0xbf43d0f1	-0.76490694
86	0x3f98f490	1.1949635
87	0xbf5a0fac	-0.85180163
88	0x3f62afc6	0.8854946
89	0xbf47cabc	-0.78043723
90	0x3f4a25a4	0.78963685
91	0x3fe410b7	1.7817601
92	0xbf84c4f8	-1.037261
93	0x3f46287b	0.7740552
94	0x3f0c3580	0.54769135
95	0x3f0f5f47	0.56004757
96	0xbf0cb0ca	-0.5495726
97	0x3fe375f6	1.7770374
98	0x3f0b6c58	0.54462194
99	0x3fe7acf1	1.8099653
100	0x3f0cddf8	0.550262
101	0x3f13edcf	0.5778474
102	0x3f0cc477	0.5498728
103	0xbfe2dad1	-1.7723027
104	0x4046280c	3.0961943
105	0x409e46fa	4.946164
106	0x40b0f1d7	5.5295215
107	0x4087838e	4.234809
108	0x408e7f49	4.4530377
109	0x408e6fb9	4.451138
110	0x409c92ce	4.8929205
111	0x4089f652	4.3113184
112	0xc09df4aa	-4.936116
113	0x409042ff	4.508178
114	0x407b0be5	3.922601
115	0x409b0273	4.844049
116	0x408ffcb2	4.4995966
117	0xc0a6bfa2	-5.2108927
118	0x40903595	4.506541
119	0x40998def	4.798576
120	0xc0a7368c	-5.2254086
121	0xc0a584c2	-5.172456
122	0x40a74276	5.226863
123	0xc0a4d6e3	-5.1512313
124	0xc0a74367	-5.226978
125	0xc0a73703	-5.2254653
126	0xc0a0668c	-5.012518
127	0xc0929c16	-4.5815535
128	0xc0941a27	-4.6281924
129	0x40a65373	5.1976867
130	0x3f7dfbb2	0.9921218
131	0x40809a41	4.01883
132	0x40732a4a	3.7994561
133	0x40aa9020	5.3300934
134	0xc0adb732	-5.4286127
135	0x40409e96	3.0096793
136	0x40a0182b	5.00295
137	0x408bab53	4.3646636
138	0x408ffcd3	4.4996123
139	0x40b0bd20	5.5230865
140	0x409aed66	4.8414793
141	0xc0913f05	-4.538943
142	0xc087df17	-4.2459826
143	0xc090acc8	-4.5210915
144	0x3fd11057	1.6333112
145	0xc04d83c4	-3.2111673
146	0xc089c952	-4.305825
147	0xc086d26b	-4.213186
148	0x408a4b72	4.3217096
149	0xc08a9b69	-4.331471
150	0xc089bef2	-4.3045588
151	0x3fa46431	1.2843076
152	0xc0890e99	-4.283032
153	0xc08748ef	-4.227653
154	0xc08aad49	-4.333653
155	0x4089cd45	4.3063073
156	0x40114d61	2.2703478
157	0x3fc609cf	1.5471743
158	0x4046a1f8	3.1036358
159	0xbe95685f	-0.2918119
160	0x3fd55d97	1.6669186
161	0x3e98cb38	0.29842544
162	0xbec4dbb6	-0.38448876
163	0xbe9236eb	-0.28557524
164	0x3ffb9522	1.9654887
165	0xbea238d3	-0.31683978
166	0x3fee2a47	1.8606652
167	0xbe9c895b	-0.30573544
168	0x3f02453e	0.50886905
169	0xbfc9fbd2	-1.5779974
170	0xbe5f068c	-0.21779841
171	0x4004f692	2.0775495
172	0xc0537a6c	-3.304347
173	0x40713200	3.7686768
174	0xc0595b51	-3.3961985
175	0x40af68b5	5.4815316
176	0xc081f3c8	-4.0610085
177	0x40c8bc46	6.2729826
178	0xc0b3644a	-5.6059923
179	0xc0998017	-4.796886
180	0x409a2392	4.816842
181	0xc04c42ad	-3.1915696
182	0xbf4d2869	-0.80139786
183	0xc0810c2b	-4.0327353
184	0x4055c16c	3.3399305
185	0xc0a7b097	-5.2403064
186	0x407eeb7b	3.9831226
187	0xc068b811	-3.6362345
188	0x408be5de	4.37181
189	0xc0883e94	-4.257639
190	0xc0342455	-2.8147175
191	0x40dfdf4a	6.996007
192	0xc09e9852	-4.956094
193	0x409b35ec	4.8503323
194	0x403b2cf2	2.9246182
195	0xc09ea2f5	-4.957392
196	0x4075f69e	3.8431773
197	0xc0947b48	-4.640049
198	0xc0836a8e	-4.106757
199	0x4076f41d	3.8586495
200	0xc08df075	-4.4356027
201	0xbdefb3af	-0.11704194
202	0x408edf84	4.4647846
203	0xc0903e12	-4.507577
204	0xc0948859	-4.641644
205	0xc090371f	-4.5067286
206	0x4085c031	4.179711
207	0x40ac26da	5.3797426
208	0x4075a73c	3.8383322
209	0x408c876b	4.3915305
210	0xc03129d8	-2.768179
211	0xc015b008	-2.338869
212	0x401890d3	2.3838394
213	0x401e2651	2.4710886
214	0xc01a077c	-2.4067068
215	0xc00b828c	-2.179843
216	0x408e4f8e	4.4472113
217	0xc01c7bc6	-2.4450545
218	0x404ac631	3.1683466
219	0xc01b3914	-2.4253588
220	0x40110feb	2.2665966
221	0xc0855447	-4.166538
222	0x405b6856	3.4282432
223	0xc04497a4	-3.0717554
224	0xc043f79d	-3.061988
225	0x408c88b2	4.3916864
226	0xc08cd5fb	-4.4011207
227	0x409032fb	4.506223
228	0x40908e21	4.5173497
229	0x40937542	4.6080637
230	0xc083c8d1	-4.1182637
231	0xc07b4613	-3.926152
232	0x408f913a	4.486478
233	0xc090f1f9	-4.5295377
234	0xc09d8a1f	-4.9231105
235	0x40807ba1	4.0150914
236	0xc08e37a7	-4.4442935
237	0xc08c5a82	-4.3860483
238	0x40b0c7da	5.524396
239	0xc06ffe2f	-3.7498891
240	0xc088881d	-4.2666154
241	0x408b06e3	4.3445907
242	0xc092dd5d	-4.589522
243	0xc09464c2	-4.6372995
244	0x406d51bc	3.7081137
245	0xc007a1a9	-2.119242
246	0x407e9fee	3.9785113
247	0xc0969333	-4.7054687
248	0x405e882c	3.4770613
249	0xc0a0bccb	-5.023046
250	0x40aab116	5.334117
251	0x40969b51	4.7064595
252	0xc08f5211	-4.478768
253	0x409498b2	4.6436396
254	0xc049f9de	-3.1558757
255	0x40a5fe3a	5.1872835

variational_strategy.base_variational_strategy._variational_distribution.variational_mean f4 [20, 100]
0	0x21148b19	5.0328445e-19
1	0xa4b58509	-7.872161e-17
2	0xa49f6229	-6.912155e-17
3	0x241aca22	3.356464e-17
4	0x22891c0b	3.7163616e-18
5	0x222d7802	2.3509404e-18
6	0x22e136df	6.104447e-18
7	0xa46d2d65	-5.1429634e-17
8	0x98b46237	-4.662808e-24
9	0x182a82a8	2.203795e-24
10	0x98cac81a	-5.2417827e-24
11	0x1c22c0d8	5.385055e-22
12	0xa3458b5b	-1.0708901e-17
13	0x982af329	-2.209475e-24
14	0x97c15710	-1.249431e-24
15	0x1886ec30	3.4876677e-24
16	0x1ca7eb79	1.1112001e-21
17	0x9920540d	-8.28878e-24
18	0x18c8a043	5.186061e-24
19	0x9823e424	-2.1182438e-24
20	0x98a6aec7	-4.3086474e-24
21	0x23936d5a	1.5984084e-17
22	0x988768b3	-3.50024e-24
23	0x98081211	-1.758671e-24
24	0x9a9a5661	-6.383246e-23
25	0x98c04fa0	-4.9711237e-24
26	0x162d5972	1.4003053e-25
27	0x193474bb	9.3293554e-24
28	0x98bac567	-4.82792e-24
29	0x1c2f52f5	5.800986e-22
30	0xa53a31ff	-1.6149868e-16
31	0x98b1fbb5	-4.6007587e-24
32	0x99002dbe	-6.6266825e-24
33	0x177eedc2	8.237192e-25
34	0x1940452c	9.9401365e-24
35	0x97ee790b	-1.5410945e-24
36	0x98ab0052	-4.4202787e-24
37	0x9884858c	-3.425605e-24
38	0x178b787a	9.013077e-25
39	0x18bb912e	4.848496e-24
40	0x98c111e1	-4.9907384e-24
41	0x9886ec68	-3.4876897e-24
42	0x97d128a4	-1.3516568e-24
43	0x989e75f4	-4.0961145e-24
44	0x98c27956	-5.0270343e-24
45	0x986dcb52	-3.0734183e-24
46	0x18f28e1d	6.269903e-24
47	0x98b6447f	-4.711506e-24
48	0x99077324	-7.002589e-24
49	0x98c0f7d5	-4.9881083e-24
50	0x199445f1	1.533109e-23
51	0x98740239	-3.1537383e-24
52	0xa3e13568	-2.4417167e-17
53	0x99218f12	-8.352398e-24
54	0x9873639b	-3.1457302e-24
55	0x14ed5ade	2.3966725e-26
56	0x98c3b9b4	-5.059383e-24
57	0x98f88adc	-6.424671e-24
58	0x98ed7dd5	-6.1390122e-24
59	0x98e9765d	-6.0348605e-24
60	0x98844a62	-3.4196308e-24
61	0x97a5134a	-1.0667744e-24
62	0x98064590	-1.7354214e-24
63	0x97fd842e	-1.6383109e-24
64	0x98aa2322	-4.3979445e-24
65	0x98e8c418	-6.01686e-24
66	0x18d67c48	5.5443195e-24
67	0x98fdb1fe	-6.5578693e-24
68	0x9828d117	-2.1819054e-24
69	0x98c4c8c7	-5.0867546e-24
70	0x9806ed88	-1.7439017e-24
71	0x98a34f65	-4.221468e-24
72	0x192ddcd3	8.9884855e-24
73	0x98d8cca0	-5.604131e-24
74	0x9897064b	-3.903894e-24
75	0x98d154dd	-5.4110924e-24
76	0x185c0abb	2.8439751e-24
77	0x98939b65	-3.8155518e-24
78	0x98d91b0f	-5.6120507e-24
79	0x98adab1f	-4.489224e-24
80	0x98223c23	-2.096837e-24
81	0x98e4960e	-5.9088135e-24
82	0x98855b4b	-3.4471877e-24
83	0x98e5279c	-5.9235108e-24
84	0x98b8516f	-4.7645112e-24
85	0x990e86d4	-7.368456e-24
86	0x18573696	2.7815658e-24
87	0x99056efd	-6.898353e-24
88	0x17b4f8cf	1.1695035e-24
89	0x15c6328c	8.005131e-26
90	0x98991cf4	-3.957881e-24
91	0x982c16e0	-2.2242028e-24
92	0x991248be	-7.562713e-24
93	0x98708d14	-3.10905e-24
94	0x98a63aab	-4.2969234e-24
95	0x97cbc28c	-1.3167678e-24
96	0x98a58dc9	-4.2794667e-24
97	0x16008374	1.0381237e-25
98	0x98542aa2	-2.7421882e-24
99	0x988d14a0	-3.646847e-24
100	0xc00ba7e0	-2.1821213
101	0x3c96da32	0.01841459
102	0xbf911240	-1.1333694
103	0xbfb06fbe	-1.3784101
104	0xc06d443d	-3.70729
105	0xbfd89dc4	-1.6923146
106	0xc063abd1	-3.5573618
107	0xc02526fe	-2.580505
108	0xc076d46b	-3.856715
109	0xc057a13b	-3.3692157
110	0xc02b9c3e	-2.6814113
111	0xc07c6dc1	-3.9441988
112	0xc066f5c2	-3.6087499
113	0xc0788ac6	-3.88347
114	0xc06697ae	-3.6030078
115	0xc060aa72	-3.5104032
116	0xc0069d83	-2.1033638
117	0xbf00e1e8	-0.50344706
118	0xc0356526	-2.8342986
119	0xc031d814	-2.7788134
120	0xc0241d5e	-2.5642924
121	0x40095082	2.1455388
122	0xc01d1602	-2.4544683
123	0xc02b31c5	-2.6749127
124	0xc035c1c7	-2.8399522
125	0xc03c72bf	-2.9445035
126	0xbfc1373d	-1.5094982
127	0xc015ff39	-2.3437026
128	0x4029dbe4	2.654046
129	0xc01c31ce	-2.4405398
130	0xb75448b6	-1.2653114e-05
131	0xbf6abda2	-0.91695607
132	0xbfe0b27f	-1.7554473
133	0xbf24cda9	-0.6437631
134	0x3ec2e279	0.3806341
135	0xbfb41c44	-1.4071126
136	0x3ff7dd84	1.9364476
137	0xbf95d7d1	-1.1706487
138	0xbf978443	-1.1837238
139	0x3d0a3123	0.033738267
140	0x3fdda3a8	1.7315569
141	0x3fee89ef	1.8635844
142	0x3e32cc35	0.17460711
143	0xbf808a7c	-1.0042262
144	0xbff6fc85	-1.9295813
145	0xbe095c06	-0.1341401
146	0xbfd7d155	-1.6860758
147	0xbf86a335	-1.0518557
148	0x404b464c	3.1761656
149	0xbff9c4c1	-1.951317
150	0xbe1268d1	-0.14297797
151	0xbf356017	-0.70849746
152	0x3f25a9ff	0.6471252
153	0xbf5fce09	-0.8742376
154	0x3eaa3203	0.3324128
155	0x3f41c191	0.75685984
156	0xbfb495d1	-1.410822
157	0xbec2b890	-0.38031435
158	0xbf54bd58	-0.83101416
159	0x401f0679	2.48477
160	0x402aeaf4	2.6705904
161	0xbf145271	-0.57938296
162	0x40226ce7	2.5378969
163	0xbf025b59	-0.50920635
164	0x3fc32d86	1.5248268
165	0x3f0f24c9	0.55915505
166	0xbec4e8ce	-0.38458866
167	0xbeb90118	-0.36133647
168	0xbfdc8ebf	-1.7231063
169	0xbf9936c7	-1.1969842
170	0xbf5321ac	-0.82473254
171	0x3e7c407a	0.24633971
172	0x400c082c	2.1879988
173	0xbfc77feb	-1.5585912
174	0x3e332d25	0.1749769
175	0xbfbdb259	-1.4820052
176	0xbdccea34	-0.10005608
177	0xbdb254b4	-0.08707562
178	0x40125311	2.28632
179	0xbe62fcb6	-0.22166714
180	0xbe3301e2	-0.17481187
181	0x400752ea	2.1144357
182	0xbe4ac1d4	-0.19800502
183	0x3f02c0da	0.5107552
184	0x3ff0456f	1.877119
185	0x3e8ac6fd	0.2710494
186	0x3fe40b91	1.781603
187	0xbd2cfdc9	-0.042234216
188	0xbfbe6050	-1.4873142
189	0xbe881184	-0.26575863
190	0xbfbb6462	-1.4640009
191	0x3fb7f881	1.4372712
192	0x3e1e92ce	0.15485689
193	0xbf044aad	-0.51676446
194	0xbfc23707	-1.5173043
195	0x3d21f4ee	0.039540224
196	0x3fd13940	1.6345596
197	0xbe7a644f	-0.24452327
198	0x3fc0896d	1.5041939
199	0xbfa7655c	-1.3077807
200	0xa0e4eb75	-3.8780515e-19
201	0x995c5496	-1.13908154e-23
202	0xa0864fd2	-2.2753304e-19
203	0x9c50fb8c	-6.9146544e-22
204	0xa0ae528b	-2.953137e-19
205	0xa11292e9	-4.966116e-19
206	0x8d520685	-6.4719094e-31
207	0xa02bc306	-1.4548791e-19
208	0x9c0f4d5b	-4.741471e-22
209	0x1a2a81d8	3.5260063e-23
210	0xa0290423	-1.4316226e-19
211	0x9ee4891b	-2.4197144e-20
212	0x9bcfe5f9	-3.4393894e-22
213	0x8e2be1fe	-2.1186189e-30
214	0x9276bd9d	-7.785763e-28
215	0x8fc0e51d	-1.9020913e-29
216	0x9bb51e13	-2.9963373e-22
217	0x9b8fee9c	-2.3811563e-22
218	0x9b76074f	-2.0351005e-22
219	0x8f246f8d	-8.107308e-30
220	0x9b06fe1c	-1.1166327e-22
221	0x9bacfec9	-2.8619664e-22
222	0x9b7995e0	-2.0645224e-22
223	0x9b81c8b3	-2.1470959e-22
224	0x9b804654	-2.1221272e-22
225	0x1e85d759	1.4170988e-20
226	0x9b8a8da2	-2.2921713e-22
227	0x9fcd8797	-8.704519e-20
228	0x910b2bb5	-1.0978635e-28
229	0x9fb49502	-7.647948e-20
230	0x901b31c3	-3.0606695e-29
231	0x0f9b8a1b	1.5337376e-29
232	0x901636f5	-2.962462e-29
233	0x0f6df8e8	1.173294e-29
234	0x9b3a4d37	-1.5410509e-22
235	0x9b8f9e2e	-2.3759587e-22
236	0x9ba21991	-2.6817174e-22
237	0x91f61a22	-3.8828062e-28
238	0x9b8e82f2	-2.357655e-22
239	0x9ba47479	-2.7206793e-22
240	0x901cca6e	-3.092152e-29
241	0x9b9e3622	-2.617389e-22
242	0x18134fd5	1.903961e-24
243	0x9726b885	-5.387039e-25
244	0x9baaa1b7	-2.8228647e-22
245	0x9bb52fe6	-2.9974892e-22
246	0x90af56aa	-6.9158856e-29
247	0x9b99f0b6	-2.5467283e-22
248	0x913ba570	-1.4802678e-28
249	0x933076d2	-2.2272906e-27
250	0x909631ca	-5.924128e-29
251	0x91ce1e97	-3.2519922e-28
252	0x9bb1999a	-2.9381456e-22
253	0x905ae3ef	-4.3168513e-29
254	0x8dbb3eff	-1.1539931e-30
255	0x8e4fc27b	-2.5608359e-30

variational_strategy.base_variational_strategy._variational_distribution.chol_variational_covar f4 [20, 100, 100]
0	0x3f800000	1.0
1	0x00000000	0.0
2	0x00000000	0.0
3	0x00000000	0.0
4	0x00000000	0.0
5	0x00000000	0.0
6	0x00000000	0.0
7	0x00000000	0.0
8	0x00000000	0.0
9	0x00000000	0.0
10	0x00000000	0.0
11	0x00000000	0.0
12	0x00000000	0.0
13	0x00000000	0.0
14	0x00000000	0.0
15	0x00000000	0.0
16	0x00000000	0.0
17	0x00000000	0.0
18	0x00000000	0.0
19	0x00000000	0.0
20	0x00000000	0.0
21	0x00000000	0.0
22	0x00000000	0.0
23	0x00000000	0.0
24	0x00000000	0.0
25	0x00000000	0.0
26	0x00000000	0.0
27	0x00000000	0.0
28	0x00000000	0.0
29	0x00000000	0.0
30	0x00000000	0.0
31	0x00000000	0.0
32	0x00000000	0.0
33	0x00000000	0.0
34	0x00000000	0.0
35	0x00000000	0.0
36	0x00000000	0.0
37	0x00000000	0.0
38	0x00000000	0.0
39	0x00000000	0.0
40	0x00000000	0.0
41	0x00000000	0.0
42	0x00000000	0.0
43	0x00000000	0.0
44	0x00000000	0.0
45	0x00000000	0.0
46	0x00000000	0.0
47	0x00000000	0.0
48	0x00000000	0.0
49	0x00000000	0.0
50	0x00000000	0.0
51	0x00000000	0.0
52	0x00000000	0.0
53	0x00000000	0.0
54	0x00000000	0.0
55	0x00000000	0.0
56	0x00000000	0.0
57	0x00000000	0.0
58	0x00000000	0.0
59	0x00000000	0.0
60	0x00000000	0.0
61	0x00000000	0.0
62	0x00000000	0.0
63	0x00000000	0.0
64	0x00000000	0.0
65	0x00000000	0.0
66	0x00000000	0.0
67	0x00000000	0.0
68	0x00000000	0.0
69	0x00000000	0.0
70	0x00000000	0.0
71	0x00000000	0.0
72	0x00000000	0.0
73	0x00000000	0.0
74	0x00000000	0.0
75	0x00000000	0.0
76	0x00000000	0.0
77	0x00000000	0.0
78	0x00000000	0.0
79	0x00000000	0.0
80	0x00000000	0.0
81	0x00000000	0.0
82	0x00000000	0.0
83	0x00000000	0.0
84	0x00000000	0.0
85	0x00000000	0.0
86	0x00000000	0.0
87	0x00000000	0.0
88	0x00000000	0.0
89	0x00000000	0.0
90	0x00000000	0.0
91	0x00000000	0.0
92	0x00000000	0.0
93	0x00000000	0.0
94	0x00000000	0.0
95	0x00000000	0.0
96	0x00000000	0.0
97	0x00000000	0.0
98	0x00000000	0.0
99	0x00000000	0.0
100	0x8ecd7073	-5.0644686e-30
101	0x3f800000	1.0
102	0x00000000	0.0
103	0x00000000	0.0
104	0x00000000	0.0
105	0x00000000	0.0
106	0x00000000	0.0
107	0x00000000	0.0
108	0x00000000	0.0
109	0x00000000	0.0
110	0x00000000	0.0
111	0x00000000	0.0
112	0x00000000	0.0
113	0x00000000	0.0
114	0x00000000	0.0
115	0x00000000	0.0
116	0x00000000	0.0
117	0x00000000	0.0
118	0x00000000	0.0
119	0x00000000	0.0
120	0x00000000	0.0
121	0x00000000	0.0
122	0x00000000	0.0
123	0x00000000	0.0
124	0x00000000	0.0
125	0x00000000	0.0
126	0x00000000	0.0
127	0x00000000	0.0
128	0x00000000	0.0
129	0x00000000	0.0
130	0x00000000	0.0
131	0x00000000	0.0
132	0x00000000	0.0
133	0x00000000	0.0
134	0x00000000	0.0
135	0x00000000	0.0
136	0x00000000	0.0
137	0x00000000	0.0
138	0x00000000	0.0
139	0x00000000	0.0
140	0x00000000	0.0
141	0x00000000	0.0
142	0x00000000	0.0
143	0x00000000	0.0
144	0x00000000	0.0
145	0x00000000	0.0
146	0x00000000	0.0
147	0x00000000	0.0
148	0x00000000	0.0
149	0x00000000	0.0
150	0x00000000	0.0
151	0x00000000	0.0
152	0x00000000	0.0
153	0x00000000	0.0
154	0x00000000	0.0
155	0x00000000	0.0
156	0x00000000	0.0
157	0x00000000	0.0
158	0x00000000	0.0
159	0x00000000	0.0
160	0x00000000	0.0
161	0x00000000	0.0
162	0x00000000	0.0
163	0x00000000	0.0
164	0x00000000	0.0
165	0x00000000	0.0
166	0x00000000	0.0
167	0x00000000	0.0
168	0x00000000	0.0
169	0x00000000	0.0
170	0x00000000	0.0
171	0x00000000	0.0
172	0x00000000	0.0
173	0x00000000	0.0
174	0x00000000	0.0
175	0x00000000	0.0
176	0x00000000	0.0
177	0x00000000	0.0
178	0x00000000	0.0
179	0x00000000	0.0
180	0x00000000	0.0
181	0x00000000	0.0
182	0x00000000	0.0
183	0x00000000	0.0
184	0x00000000	0.0
185	0x00000000	0.0
186	0x00000000	0.0
187	0x00000000	0.0
188	0x00000000	0.0
189	0x00000000	0.0
190	0x00000000	0.0
191	0x00000000	0.0
192	0x00000000	0.0
193	0x00000000	0.0
194	0x00000000	0.0
195	0x00000000	0.0
196	0x00000000	0.0
197	0x00000000	0.0
198	0x00000000	0.0
199	0x00000000	0.0
200	0x8cffb8cf	-3.9400198e-31
201	0x8db67f5c	-1.1247277e-30
202	0x3f800000	1.0
203	0x00000000	0.0
204	0x00000000	0.0
205	0x00000000	0.0
206	0x00000000	0.0
207	0x00000000	0.0
208	0x00000000	0.0
209	0x00000000	0.0
210	0x00000000	0.0
211	0x00000000	0.0
212	0x00000000	0.0
213	0x00000000	0.0
214	0x00000000	0.0
215	0x00000000	0.0
216	0x00000000	0.0
217	0x00000000	0.0
218	0x00000000	0.0
219	0x00000000	0.0
220	0x00000000	0.0
221	0x00000000	0.0
222	0x00000000	0.0
223	0x00000000	0.0
224	0x00000000	0.0
225	0x00000000	0.0
226	0x00000000	0.0
227	0x00000000	0.0
228	0x00000000	0.0
229	0x00000000	0.0
230	0x00000000	0.0
231	0x00000000	0.0
232	0x00000000	0.0
233	0x00000000	0.0
234	0x00000000	0.0
235	0x00000000	0.0
236	0x00000000	0.0
237	0x00000000	0.0
238	0x00000000	0.0
239	0x00000000	0.0
240	0x00000000	0.0
241	0x00000000	0.0
242	0x00000000	0.0
243	0x00000000	0.0
244	0x00000000	0.0
245	0x00000000	0.0
246	0x00000000	0.0
247	0x00000000	0.0
248	0x00000000	0.0
249	0x00000000	0.0
250	0x00000000	0.0
251	0x00000000	0.0
252	0x00000000	0.0
253	0x00000000	0.0
254	0x00000000	0.0
255	0x00000000	0.0

mean_module.constant f4 [20, 1]
0	0x2a56a25b	1.9063347e-13
1	0xbfb02483	-1.3761142
2	0x2899e261	1.7084588e-14
3	0x3bd72e5a	0.006566805
4	0x2c039e92	1.8704244e-12
5	0xabd703c2	-1.5277712e-12
6	0xad16d00f	-8.572711e-12
7	0x3ee94907	0.45563528
8	0x3eb057a9	0.3444188
9	0x3d28b984	0.041192546
10	0xadbdbdd4	-2.1571113e-11
11	0xbc0a85c0	-0.00845474
12	0xbd4ffa18	-0.050775617
13	0xace5b238	-6.5283577e-12
14	0xb0718cbe	-8.7875296e-10
15	0xac75ff39	-3.4958271e-12
16	0xbca12dbb	-0.019675126
17	0x2adb251b	3.8927962e-13
18	0xa866965b	-1.2800168e-14
19	0x3e3122d7	0.17298447

covar_module.raw_outputscale f4 [20]
0	0xc1b45f93	-22.546667
1	0xc10497fa	-8.287104
2	0xc1bc10b0	-23.508148
3	0xc073d8c1	-3.8101046
4	0xc1c15468	-24.166214
5	0xc1c327fd	-24.394526
6	0xc1bbdad0	-23.481842
7	0xc092cc67	-4.5874515
8	0xc04a459f	-3.1604993
9	0xc04ec01c	-3.2304754
10	0xc1c0f397	-24.11894
11	0xc02b05af	-2.672222
12	0xc02bbf57	-2.6835535
13	0xc1c08b3f	-24.067991
14	0xc1c21664	-24.260933
15	0xc1a735b3	-20.90122
16	0xc01fd526	-2.4973845
17	0xc1c1e7ad	-24.238123
18	0xc1c17ed6	-24.186932
19	0xc01c8cf4	-2.446103

covar_module.base_kernel.raw_lengthscale f4 [20, 1, 13]
0	0x3cc17efb	0.02362012
1	0x3febd05d	1.8422962
2	0x3fbc6586	1.4718482
3	0x3d00ebcc	0.031474873
4	0x3d651a4e	0.05593329
5	0xbd68e52f	-0.05685919
6	0xbd889929	-0.06669838
7	0x3ca01846	0.019542824
8	0xbcae7f39	-0.021300899
9	0x3c13cfa5	0.009021674
10	0x3deb0762	0.114760175
11	0xbb9fb793	-0.0048741787
12	0xbd279d84	-0.040921703
13	0x414918cc	12.568554
14	0x428ad89d	69.42307
15	0x42afd256	87.91081
16	0x4131d1e9	11.113748
17	0x41262a25	10.385289
18	0x41271c68	10.444435
19	0x4125cb95	10.362203
20	0x411767f6	9.462881
21	0x413bf5aa	11.747477
22	0x412ba7f0	10.7285
23	0x411bddbd	9.741635
24	0x4126e99f	10.432036
25	0x41457a48	12.342354
26	0xbf3a326f	-0.72733206
27	0x3fc6af39	1.5522224
28	0x3fba76e4	1.4567533
29	0xbf24d26e	-0.6438359
30	0xbf5e85bf	-0.8692283
31	0xbf3fd94f	-0.7494096
32	0xbf3a8583	-0.7285997
33	0xbf617eba	-0.88083994
34	0xbf34481d	-0.70422536
35	0xbed71c38	-0.42013717
36	0xbf411166	-0.7541717
37	0xbf4fb05b	-0.8112847
38	0xbf2a4219	-0.66507107
39	0x417309fb	15.189937
40	0x430c7e1d	140.49263
41	0x42829e04	65.308624
42	0x40be2c0e	5.942878
43	0x40961299	4.68977
44	0x40b913f9	5.783688
45	0x409c4104	4.8829365
46	0x408ecf44	4.462801
47	0x418d0824	17.628975
48	0x41acc888	21.597916
49	0x40a5c523	5.1803145
50	0x412c7a9d	10.779935
51	0xbf9531ef	-1.1655864
52	0xbed7aa9d	-0.42122355
53	0x400f8df0	2.2430382
54	0x4061ead9	3.529959
55	0xbf6e2ad1	-0.9303408
56	0xbf933cba	-1.1502907
57	0xbf833134	-1.0249391
58	0xbf9b8125	-1.2148787
59	0xbf243332	-0.6414062
60	0xbf87a252	-1.0596411
61	0xbfac35c8	-1.3453913
62	0xbf5d0f95	-0.863519
63	0xbf700031	-0.9375029
64	0xbf53ef34	-0.8278687
65	0xbfcff4e2	-1.6246607
66	0x3ff967e0	1.9484825
67	0x400abe47	2.1678636
68	0xbfab4d3a	-1.3382943
69	0xbf97f696	-1.1872127
70	0xbfaa203f	-1.3291091
71	0xbf9faf34	-1.2475343
72	0xbf596bed	-0.84930307
73	0xbf879097	-1.0591
74	0xbfab4548	-1.3380518
75	0xbf964ff1	-1.1743146
76	0xbf9fa91a	-1.2473481
77	0xbfdb6f0b	-1.7143263
78	0xbe29b310	-0.16572213
79	0x3fe6652a	1.7999623
80	0x3feb98d3	1.8406013
81	0xbf1bcce0	-0.6085949
82	0xbf6a3ec4	-0.9150202
83	0xbf5e2704	-0.86778283
84	0xbf155e3f	-0.58346933
85	0xbf7e19cc	-0.9925811
86	0xbf618b5c	-0.8810327
87	0xbf45d07e	-0.7727126
88	0xbf6ca6d2	-0.9244205
89	0xbf5644f7	-0.8369898
90	0xbf7e5671	-0.9935065
91	0x3fa86270	1.3155041
92	0x419d89f6	19.692364
93	0x42016cdf	32.35632
94	0x4055bb0b	3.3395412
95	0x40901e3e	4.5036917
96	0x408aba5d	4.3352494
97	0x4099582d	4.7920136
98	0x4002c78f	2.04343
99	0x40e7d6cf	7.2449718
100	0x4071862d	3.7738144
101	0x40752ca8	3.8308506
102	0x407d98c6	3.9624496
103	0x40a60084	5.187563
104	0x405eb336	3.4796882
105	0x40a61332	5.189843
106	0x4178db43	15.553531
107	0x41208503	10.032474
108	0x412b778c	10.716686
109	0x413927d5	11.572225
110	0x413fa698	11.978172
111	0x4112b204	9.168461
112	0x416992fa	14.598383
113	0x41468f8c	12.410046
114	0x4147b3f2	12.481432
115	0x413be956	11.744467
116	0x418fd07f	17.976805
117	0x3f13d08c	0.5774009
118	0x41de63aa	27.798664
119	0x4058e91f	3.3892286
120	0x4084aff4	4.1464787
121	0x409dc71f	4.930557
122	0x407e30da	3.9717317
123	0x41063711	8.388444
124	0x4026248b	2.5959804
125	0x413c5e52	11.773027
126	0x40a7c6c4	5.2430134
127	0x40cfb956	6.491374
128	0x409bb7e4	4.8661976
129	0x4178d53b	15.552058
130	0xbf31621d	-0.69290334
131	0x3edb82f6	0.42873353
132	0x3bb6a0a8	0.005573351
133	0xbfa03599	-1.2516357
134	0xbf8cd5d2	-1.1002753
135	0xbf25d2f9	-0.64775044
136	0xbfa39680	-1.2780304
137	0xbf70ab63	-0.94011515
138	0xbfb6812c	-1.425817
139	0xbf5f90c9	-0.873303
140	0xbf874035	-1.056647
141	0xbf8d12e6	-1.1021392
142	0xbf7a985d	-0.9788874
143	0x4028a643	2.6351478
144	0x4112efd1	9.183549
145	0x415758d6	13.459188
146	0x404436d6	3.065847
147	0x40782f96	3.8779044
148	0x4084fb1f	4.1556544
149	0x40891123	4.283342
150	0x40153f39	2.3319838
151	0x411b489b	9.705226
152	0x40823db8	4.070034
153	0x4092ece9	4.5914197
154	0x40706c41	3.7566073
155	0x40ba601b	5.8242316
156	0x3f80bba9	1.0057269
157	0x41100ac5	9.002629
158	0xbf8b9aa7	-1.0906571
159	0x41880197	17.000776
160	0x4190b944	18.090462
161	0x4181617c	16.1726
162	0x418eb2bf	17.837278
163	0x41ad6436	21.673931
164	0x41952260	18.641785
165	0x41c798ec	24.949669
166	0x41af42d9	21.90764
167	0x41755a40	15.334534
168	0x418c4b7d	17.53686
169	0xbfb3cf93	-1.4047722
170	0xbf348b2f	-0.7052488
171	0xbed799d6	-0.42109555
172	0xbfa94347	-1.3223656
173	0xbfa7e582	-1.3116915
174	0xbfd5c00a	-1.6699231
175	0xbfe7ce41	-1.8109819
176	0xbfe808fc	-1.8127742
177	0xbfa5aca1	-1.2943307
178	0xbfd0a2b1	-1.629965
179	0xbfef2a1b	-1.8684725
180	0xbed14a90	-0.408772
181	0xbf96d2de	-1.1783102
182	0xbf89d455	-1.0767924
183	0x3eb8258a	0.3596614
184	0x3f07df13	0.5307476
185	0xbfc43d0a	-1.5331128
186	0xbfc196c0	-1.512413
187	0xbfb21d59	-1.3915206
188	0xbfcd66c1	-1.6046983
189	0xbfc139e2	-1.509579
190	0xbfceeb5f	-1.616558
191	0xbf13c116	-0.577165
192	0xbfdb7646	-1.7145469
193	0xbfa2de99	-1.2724181
194	0xbfca750d	-1.5816971
195	0x40039ea1	2.056557
196	0x403c9fb5	2.9472477
197	0x40b3e73d	5.6219773
198	0x409803c3	4.750459
199	0x407921d6	3.8926902
200	0x405202f4	3.2814302
201	0x4090004b	4.500036
202	0x400fe322	2.248238
203	0x4067e380	3.6232605
204	0x40429823	3.0405357
205	0x4077de41	3.8729403
206	0x406d48cd	3.7075684
207	0x4043adc4	3.0574808
208	0x3f0f7145	0.5603221
209	0x40c5cd32	6.1812983
210	0x40ed46b3	7.4148803
211	0x40b4ede0	5.6540375
212	0x40b871ef	5.763908
213	0x40c6f61c	6.2175426
214	0x40c0637c	6.012144
215	0x40cfa473	6.4888244
216	0x41249923	10.287387
217	0x407c84b5	3.9455998
218	0x40beaa3c	5.9582806
219	0x40b1f1c8	5.5607643
220	0x41668b7c	14.409054
221	0xbf4acba9	-0.7921701
222	0xbefa62a2	-0.48903376
223	0xbe9c0d36	-0.3047883
224	0xbf83b2ae	-1.0288904
225	0xbf4ce8dc	-0.80042815
226	0xbf757b85	-0.958916
227	0xbf5f7176	-0.872825
228	0xbf599a02	-0.8500062
229	0xbf888a64	-1.0667233
230	0xbf71f893	-0.9451992
231	0xbf763739	-0.96178013
232	0xbf76210d	-0.9614418
233	0xbf6cb4e8	-0.9246354
234	0xbed2d0d3	-0.41174945
235	0x40330f91	2.797825
236	0x409d0ed7	4.9080615
237	0xbfd65db8	-1.6747351
238	0xbfb931a3	-1.4468273
239	0xbffe29fc	-1.9856563
240	0xc005cb44	-2.0905313
241	0xbfc96055	-1.5732523
242	0xc0034a4a	-2.0514092
243	0xbf03122f	-0.5119962
244	0xc0071ef0	-2.1112633
245	0xbff7ec4f	-1.9368991
246	0xc0025afb	-2.036803
247	0x401520bd	2.3301232
248	0x40cdcd3a	6.431302
249	0x4141310f	12.074477
250	0x42021ec0	32.53003
251	0x41f379fe	30.434566
252	0x41b355d6	22.416912
253	0x41d80889	27.004168
254	0x41db8de2	27.444279
255	0x41f8ea2b	31.11434
