state/mogp_model_lmc_0_state.pth (torch, 919806 bytes, 7 tensors)

variational_strategy.lmc_coefficients f4 [20, 20]
-1.2998255 -0.9243874 -0.578228 -0.63600254 -0.657062 -0.60061306 -0.5367728 -0.49815917
-0.49693653 -0.53225577 -0.5984366 -0.6868231 -0.7972247 -0.93004245 -1.0847044 -1.2540281
-1.4372917 -1.6358893 -1.8439859 -2.0579329 -0.003220604 -0.28219774 -0.03279029 0.28910723
0.44660467 0.4983273 0.4934467 0.45877805 0.40320525 0.33717743 0.26733524 0.19554244
0.12671958 0.0627558 0.005165689 -0.04699405 -0.09319228 -0.13382223 -0.16771929 -0.19735688
0.015087787 0.5556395 -0.63743544 -1.0245123 -0.6793702 -0.285779 -0.039157793 0.061097354
0.059657026 -0.0074602445 -0.11236492 -0.24143915 -0.3755805 -0.5127773 -0.6500018 -0.7868315
-0.92012966 -1.0454164 -1.1589038 -1.2598286 0.0109132035 -0.110839635 -0.2663854 -0.506024
-0.81170934 -1.0984663 -1.3337666 -1.5226787 -1.6731446 -1.791878 -1.883872 -1.9544492
-2.0081158 -2.045004 -2.0664783 -2.07561 -2.074493 -2.0658479 -2.0493054 -2.0257788
0.96195 0.885164 0.8895724 1.0493411 1.169972 1.2073455 1.1814408 1.1353295
1.0772083 1.0173459 0.95902693 0.9040466 0.8576706 0.82046497 0.7856477 0.7560213
0.73452187 0.72171474 0.7150682 0.71062136 -0.1743661 -0.2215803 -0.28056222 -0.11510673
0.016670318 -0.006004339 -0.15694135 -0.35982555 -0.570965 -0.77009165 -0.95629555 -1.1307402
-1.2864069 -1.4222112 -1.5315648 -1.6258183 -1.7146348 -1.7975019 -1.875469 -1.952304
-0.29904395 -0.31505588 -0.60329777 -1.1795894 -1.5380436 -1.6528977 -1.6158749 -1.4949787
-1.3550448 -1.2214189 -1.1176189 -1.0444938 -0.9939142 -0.972331 -0.9770037 -0.99240136
-1.02193 -1.069351 -1.1324598 -1.2005031 -0.014096023 -0.15127283 -0.2588166 -0.312461
-0.25636336 -0.1315576 0.024594802 0.18277039 0.33538058 0.473061 0.5952491 0.70467424
0.7991078 0.8784741 0.9422909 0.99240565 1.0333008 1.0670849 1.0933008 1.113169
0.017265698 0.13141692 0.021075286 0.74962986 1.4040399 1.7725785 1.9282198 1.9765929
1.9470079 1.8769356 1.7665501 1.6225923 1.4633832 1.297781 1.131862 0.9733768
0.8189 0.6621166 0.5105507 0.3641564 0.24363634 0.16013463 0.077764966 -0.11691623
-0.23886082 -0.3303543 -0.4379789 -0.5869157 -0.7780157 -1.0060354 -1.2617202 -1.5368342
-1.8291801 -2.1342406 -2.4474852 -2.7653608 -3.0869362 -3.4080684 -3.7250023 -4.036926
0.24585272 0.6483406 0.14821796 -0.36920983 -0.26847675 0.033401094 0.35642278 0.62518525
0.8447656 1.0277926 1.1904082 1.3422037 1.4933735 1.6338426 1.7747351 1.9079887
2.032072 2.1538427 2.2821379 2.4113157 0.59808284 0.26814273 0.014894643 -0.038224433
0.22472246 0.6177805 0.9864125 1.2886448 1.5229907 1.6912454 1.8057171 1.8733933
1.8926544 1.8807138 1.8395735 1.7736597 1.6802309 1.5658448 1.4300708 1.2801399
0.6703226 1.0547978 1.3989061 0.689042 0.09501731 -0.089500554 -0.030489063 0.13593984
0.34018686 0.53907627 0.72018003 0.8821599 1.0205663 1.1231273 1.1806728 1.2035481
00000000: af60 a6bf a7a4 6cbf c006 14bf 10d1 22bf
00000010: 3735 28bf c7c1 19bf f169 09bf b80e ffbe
00000020: 776e febe ea41 08bf 2433 19bf a4d3 2fbf
00000030: eb16 4cbf 4317 6ebf 98d7 8abf fe83 a0bf
00000040: 2df9 b7bf d264 d1bf bb07 ecbf 2cb5 03c0
00000050: c510 53bb 397c 90be 1c4f 06bd dd05 943e
00000060: 5ea9 e43e c224 ff3e 0ca5 fc3e f5e4 ea3e
00000070: eb70 ce3e 85a2 ac3e 2ae0 883e 473c 483e
00000080: c7c2 013e 1d86 803d f144 a93b d57c 40bd
00000090: 98db bebd b208 09be 9bbe 2bbe ec17 4abe
000000a0: c432 773c 643e 0e3f f82e 23bf 3823 83bf
000000b0: 35eb 2dbf a051 92be ec63 20bd 3841 7a3d
000000c0: ed5a 743d 1175 f4bb 941f e6bd d33b 77be
000000d0: 164c c0be 6045 03bf 8566 26bf ca6d 49bf
000000e0: 9e8d 6bbf 34d0 85bf f656 94bf 1042 a1bf
000000f0: 4bcd 323c e4ff e2bd ab63 88be ca8a 01bf
00000100: 2fcc 4fbf 8b9a 8cbf ddb8 aabf 23e7 c2bf
00000110: 9a29 d6bf 425c e5bf b822 f1bf 642b fabf
00000120: f884 00c0 58e1 02c0 2e41 04c0 cbd6 04c0
00000130: 7ec4 04c0 da36 04c0 d227 03c0 5ca6 01c0
00000140: 5b42 763f 1c9a 623f 04bb 633f cf50 863f
00000150: a4c1 953f 4c8a 9a3f 7439 973f 7a52 913f
00000160: f6e1 893f 6438 823f ca82 753f 996f 673f
00000170: 4d90 5b3f fe09 523f 3520 493f 9d8a 413f
00000180: a009 3c3f 4cc2 383f b60e 373f 48eb 353f
00000190: 078d 32be f2e5 62be daa5 8fbe 14bd ebbd
000001a0: 3190 883c 0cc0 c4bb 3cb5 20be 0e3b b8be
000001b0: c32a 12bf ba24 45bf c9cf 74bf 18bc 90bf
000001c0: fba8 a4bf 040b b6bf 510a c4bf d01a d0bf
000001d0: 2779 dbbf 8b14 e6bf 5e0f f0bf 19e5 f9bf
000001e0: 4a1c 99be 014f a1be b971 1abf c9fc 96bf
000001f0: 9dde c4bf 2792 d3bf fdd4 cebf 765b bfbf
00000200: 1c72 adbf 7457 9cbf 230e 8fbf f9b1 85bf
00000210: 2971 7ebf afea 78bf ea1c 7abf 040e 7ebf
00000220: 9ace 82bf 7ee0 88bf 71f4 90bf 16aa 99bf
00000230: 01f3 66bc 44e7 1abe 9c83 84be e3fa 9fbe
00000240: 0f42 83be 09b7 06be 0a7b c93c 2928 3b3e
00000250: 01b7 ab3e 0d35 f23e 3f62 183f 8865 343f
00000260: 5492 4c3f aee3 603f fa39 713f 4c0e 7e3f
00000270: 3343 843f 3d96 883f 48f1 8b3f 527c 8e3f
00000280: cb70 8d3c 2892 063e 14a6 ac3c bee7 3f3f
00000290: 94b7 b33f dae3 e23f e8cf f63f ff00 fd3f
000002a0: 8e37 f93f 6d3f f03f 501e e23f 1bb1 cf3f
000002b0: 2450 bb3f b01d a63f dbe0 903f 392f 793f
000002c0: 6ea3 513f 7980 293f 73b3 023f b572 ba3e
000002d0: ce7b 793e 55fa 233e 3d43 9f3d c771 efbd
000002e0: ee97 74be 3324 a9be c53e e0be 1b40 16bf
000002f0: 092c 47bf c5c5 80bf 0c80 a1bf fcb6 c4bf
00000300: 9322 eabf 6697 08c0 99a3 1cc0 acfb 30c0
00000310: 5d90 45c0 cb1d 5ac0 7066 6ec0 7f2e 81c0
00000320: d1c0 7b3e a6f9 253f 73c6 173e 1209 bdbe
00000330: c975 89be 96cf 083d 0c7d b63e 240c 203f
00000340: 8f42 583f b58e 833f 4c5f 983f 55cd ab3f
00000350: dd26 bf3f c121 d13f 852a e33f f938 f43f
00000360: 780d 0240 8fd8 0940 8c0e 1240 ff52 1a40
00000370: f51b 193f 014a 893e a908 743c 3991 1cbd
00000380: a51d 663e dd26 1e3f 8885 7c3f 50f2 a43f
00000390: 5cf1 c23f bb7a d83f bd21 e73f 5acb ef3f
000003a0: 8042 f23f 3bbb f03f 2577 eb3f 4807 e33f
000003b0: ce11 d73f 9a6d c83f 8f0c b73f a0db a33f
000003c0: 439a 2b3f 9d03 873f 5b0f b33f 0e65 303f
000003d0: 6f98 c23d 114c b7bd 33c4 f9bc d033 0b3e
000003e0: f92c ae3e e700 0a3f b85d 383f 3bd5 613f
000003f0: eba1 823f a3c2 8f3f 4920 973f dd0d 9a3f

variational_strategy.base_variational_strategy.inducing_points f4 [20, 100, 13]
-0.28136447 1.4315202 -1.1452715 0.5989729 0.2763894 -0.24236892 0.14517914 0.5266597
0.10361631 0.40893048 0.13419257 -0.059223652 -0.2628172 -0.12475179 2.0781229 -2.1686218
-0.3453717 0.6952478 0.3001718 -0.20608068 0.6441957 0.09719171 -0.3015666 -0.2894933
0.46960628 -0.031006541 1.330254 -2.352684 -0.2768617 0.27276352 -0.1836854 -0.43866655
0.66664475 0.036351796 0.40684587 0.43468502 0.5690476 -0.012847582 -0.15777834 0.2514499
-0.23179819 -1.7454015 0.46912766 -0.49424365 0.08695329 0.19580573 0.442791 -0.21033846
-0.048774626 0.04465209 -0.6534641 0.23840037 0.5705338 0.7635578 -0.21159056 0.46717012
0.46562234 -0.46715635 0.46835378 0.46806794 0.4697455 0.4687821 0.46935624 0.4675546
-0.46956033 0.339576 -0.60348713 1.3551075 -0.2045491 -0.070193544 -0.15906753 0.06988111
-0.6439714 0.11630473 0.11495818 0.1344581 0.11224215 -0.08050359 0.337769 -0.8163869
0.13961504 0.20781834 0.20747247 -0.20787787 0.20832528 0.20847373 0.2105254 0.2080682
0.20903996 0.20952545 -0.21033058 0.38776925 -2.5453525 1.5018628 -2.6707804 1.1606033
2.6362011 -1.6668442 1.7317842 -2.014659 0.37623417 -1.6551547 -1.1724871 1.5879861
1.3767173 -1.566792 1.0959901 -2.325456 -2.512215 2.5767694 -2.6821582 -2.489432
0.8241308 -2.0850494 -1.6204462 0.6004237 2.1794815 2.0011303 -3.6759899 -1.4886658
1.2409333 -0.94256085 0.40755564 0.08020263 0.0665582 0.43670022 1.6305944 0.43776783
0.5029402 -1.3439229 2.124704 -1.9211458 -4.130458 0.32660076 -1.1876148 -1.335591
1.289432 0.8291599 0.60226864 -0.35606933 1.2363149 0.53442526 -0.167533 0.38359848
-0.8189745 0.14168292 -1.7985214 1.0673826 1.4186041 -0.28731343 -1.8903732 0.04094155
-1.2878358 -1.1049049 -0.67816335 1.2247216 0.66655624 1.1180717 -0.15953597 0.57966465
0.58075035 -0.5797709 0.5800358 0.5798797 0.5803424 0.58017975 0.5801166 0.5801317
-0.5802202 0.02955825 -0.4826429 -0.98210853 -0.26125968 -0.29340822 0.2686548 -0.28601563
-0.30595434 -0.46572977 -0.38663593 -0.3351372 -0.31733447 0.35422423 0.7316222 -0.9759689
0.22564547 0.65722394 0.6556213 -0.6570456 0.6569353 0.65698534 0.6567672 0.65666175
0.6569875 0.6568859 -0.65695804 2.13334 -1.9548129 -2.336375 1.0378792 -0.69593847
-1.0656738 0.9578551 0.72574973 0.9752201 1.0168446 1.1727717 0.85317904 -1.1463693
-0.21544391 2.43504 0.2472586 -0.25817314 -0.26223886 0.3330845 -0.3444386 -0.35744435
-0.49727476 -0.4259635 -0.37049064 -0.3650536 0.3735987 -0.28879806 1.0730145 -0.18654
-0.42126662 -0.41998124 0.4201421 -0.41976005 -0.4195568 -0.4188262 -0.41992182 -0.4200187
-0.41976014 0.42027664 0.84303164 0.9597774 -0.2341562 0.79152656 0.78908855 -0.79191905
0.7919144 0.7914526 0.79230505 0.7926533 0.7927645 0.79209286 -0.7929417 1.1385173
1.157919 0.3921232 -1.1159487 -0.66868496 0.6642375 1.080766 -0.4533234 1.9317528
00000000: 010f 90be 0e3c b73f 4298 92bf 4a56 193f
00000010: e982 8d3e 8f2f 78be d7a9 143e 2cd3 063f
00000020: ca34 d43d 565f d13e c769 093e 8094 72bd
00000030: fa8f 86be de7d ffbd f7ff 0440 b3ca 0ac0
00000040: 8fd4 b0be c3fb 313f 1eb0 993e d006 53be
00000050: 02ea 243f 720c c73d f066 9abe 7738 94be
00000060: 3c70 f03e 6e01 febc c345 aa3f 6092 16c0
00000070: d1c0 8dbe a9a7 8b3e 0718 3cbe e798 e0be
00000080: 3ba9 2a3f 9fe5 143d 1a4e d03e 098f de3e
00000090: 1aad 113f aa7e 52bc a590 21be 0bbe 803e
000000a0: 815c 6dbe 5169 dfbf 8031 f03e 810d fdbe
000000b0: 9114 b23d 4c81 483e 80b5 e23e f762 57be
000000c0: e7c7 47bd 1ce5 363d 6c49 27bf 3a1f 743e
000000d0: 810e 123f 8678 433f 32ab 58be ec30 ef3e
000000e0: 0d66 ee3e 1e2f efbe 11cc ef3e 9aa6 ef3e
000000f0: 7b82 f03e 3504 f03e 764f f03e 5163 ef3e
00000100: 366a f0be e8dc ad3e 227e 1abf 2a74 ad3f
00000110: 5275 51be a2c1 8fbd 99e2 22be d41d 8f3d
00000120: 4fdb 24bf 2d31 ee3d 326f eb3d 62af 093e
00000130: 36df e53d 11df a4bd 0ff0 ac3e bbfe 50bf
00000140: 3ff7 0e3e 55ce 543e aa73 543e f0dd 54be
00000150: 3953 553e 237a 553e f893 573e d50f 553e
00000160: 920e 563e d78d 563e e660 57be b189 c63e
00000170: 0ee7 22c0 0a3d c03f 11ee 2ac0 a68e 943f
00000180: 85b7 2840 275b d5bf 1bab dd3f 2cf0 00c0
00000190: c4a1 c03e 1cdc d3bf 0f14 96bf 2143 cb3f
000001a0: 4638 b03f a48c c8bf 6749 8c3f 45d4 14c0
000001b0: 21c8 20c0 cae9 2440 7ba8 2bc0 db52 1fc0
000001c0: 3cfa 523f 7371 05c0 c86a cfbf 5eb5 193f
000001d0: a07c 0b40 8512 0040 6b43 6bc0 9a8c bebf
000001e0: e7d6 9e3f ab4b 71bf 22ab d03e 4741 a43d
000001f0: aa4f 883d 2c97 df3e 51b7 d03f 1b23 e03e
00000200: b0c0 003f aa05 acbf 26fb 0740 1be8 f5bf
00000210: b62c 84c0 3738 a73e c303 98bf a5f4 aabf
00000220: 1c0c a53f d343 543f 472e 1a3f b84e b6be
00000230: 913f 9e3f 18d0 083f c58d 2bbe 0567 c43e
00000240: 50a8 51bf 5415 113e f335 e6bf fe9f 883f
00000250: d294 b53f bf1a 93be c0f7 f1bf 54b2 273d
00000260: ced7 a4bf 866d 8dbf 1d9c 2dbf adc3 9c3f
00000270: 6ea3 2a3f f91c 8f3f 665d 23be e764 143f
00000280: 0eac 143f de6b 14bf 3a7d 143f ff72 143f
00000290: 5291 143f a986 143f 8682 143f 8383 143f
000002a0: 5089 14bf 2524 f23c f81c f7be 776b 7bbf
000002b0: d4c3 85be 9a39 96be 1f8d 893e a470 92be
000002c0: 0ca6 9cbe 2274 eebe 25f5 c5be 1a97 abbe
000002d0: aa79 a2be e15c b53e 984b 3b3f 19d9 79bf
000002e0: 9b0f 673e d43f 283f ccd6 273f 2434 28bf
000002f0: e92c 283f 3130 283f e521 283f fc1a 283f
00000300: 5530 283f ad29 283f 672e 28bf a488 0840
00000310: 4f37 fabf 2b87 15c0 3ad9 843f 0629 32bf
00000320: 0068 88bf fe35 753f bcca 393f 06a8 793f
00000330: f727 823f 621d 963f f169 5a3f 3bbc 92bf
00000340: 549d 5cbe b2d7 1b40 5c31 7d3e 452f 84be
00000350: 2c44 86be 0d8a aa3e 425a b0be f202 b7be
00000360: cc9a febe e317 dabe f3b0 bdbe 4ee8 babe
00000370: 5448 bf3e 57dd 93be 8a58 893f 5704 3fbe
00000380: 42b0 d7be c807 d7be de1c d73e caea d6be
00000390: 26d0 d6be 6370 d6be feff d6be b10c d7be
000003a0: cdea d6be 802e d73e ecd0 573f f9b3 753f
000003b0: a5c6 6fbe 7ca1 4a3f b501 4a3f 35bb 4abf
000003c0: e7ba 4a3f a39c 4a3f 81d4 4a3f 54eb 4a3f
000003d0: 9df2 4a3f 99c6 4a3f 3afe 4abf efba 913f
000003e0: b136 943f 5fc4 c83e 68d7 8ebf f02e 2bbf
000003f0: 780b 2a3f 8a56 8a3f 011a e8be ad43 f73f

variational_strategy.base_variational_strategy._variational_distribution.variational_mean f4 [20, 100]
2.2881286 2.3874922 -3.8141572 3.344605 -3.6518488 3.4404557 -1.157376 3.4411232
3.6187017 -3.91404 -3.7674394 3.430905 -2.820985 3.5221024 -3.522309 -4.4893413
2.9968798 3.215306 -3.0375974 -0.038119383 -4.577341 3.1170692 3.3511794 2.3943906
3.2296686 3.577851 3.2100122 2.5352457 4.080133 3.3949842 3.8819323 2.5611491
2.2213616 3.3224907 3.3478806 -4.1682515 -0.94471085 -1.399965 -5.039316 1.2577931
3.744985 -4.0860023 1.5828284 -1.1681627 -4.897364 2.7630227 4.179701 -0.7455263
-4.1690145 -3.8270242 -1.0329542 -2.2821388 -4.9548926 2.9775724 0.7815184 -0.12424273
-0.28417203 4.0536838 -5.404935 -5.9964027 -4.6686254 3.9309056 -0.5681103 -6.086999
1.0928885 3.245189 -4.2862825 2.521946 4.4097896 -1.7681916 3.7634704 -3.4354997
-4.5717263 2.8575575 -4.088395 -0.2794719 0.6464505 2.7538948 0.08688663 4.46076
3.4397461 0.676701 4.596888 1.0050975 -6.173211 3.9841213 0.32682672 1.5570098
-5.4421535 1.4808921 4.236778 0.26041344 -0.7446071 -1.453395 -0.6611094 -9.290846
-6.0994573 1.1555982 6.1962557 5.0792646 0.30213943 0.6829611 -0.737461 0.4532635
-0.73564863 -0.36796555 -0.7652766 -0.5370926 -0.3534249 0.964469 0.65096635 -0.16465777
2.0829468 -0.56237 0.22980383 -0.79622436 -0.446534 -1.049139 -0.7134742 -0.7558761
-0.057151206 -3.1378422 -0.58045757 -0.1071788 -1.4374335 -2.1376255 -1.3384713 -1.8824788
1.8349026 1.8513448 3.1813402 0.27656323 2.4629526 -0.12925558 -0.06518054 3.0363376
2.2356865 -4.700925 -5.09047 -1.7219073 1.1986222 -1.106095 1.4461375 1.4025701
-0.31017357 0.45741943 4.5317802 -2.2617898 2.8692944 5.0835953 -2.1825445 0.18856457
0.9709634 2.7932422 -5.920858 2.7802544 -2.1672816 -2.4655418 3.246509 -3.8075736
2.722811 -3.5864556 -5.194275 1.8777897 1.8623505 2.989103 -1.2965873 -13.911867
12.218909 -2.727757 8.216435 2.7127979 3.2951949 6.756796 8.586096 4.974954
-5.938442 7.081871 3.1124842 4.140778 1.2181461 6.990329 0.13849434 -2.8620613
-2.6952207 -0.85287356 3.6996224 4.038373 6.0383444 8.821518 -1.7155986 -0.96213967
1.6089685 -5.284798 -0.90543973 1.500572 3.9836457 -1.7363142 3.2774458 3.298181
-1.5623865 0.9198679 -0.62792253 0.61241853 -0.6322656 0.9834271 -0.34638742 0.43309355
-0.16390444 0.3215596 -1.3039671 -0.09709331 0.3221465 -0.2598919 0.4234003 0.5267673
-0.102817 1.0977708 0.04020161 -0.49143618 0.48015243 2.697238 -0.5646632 -1.5299867
0.4671423 0.11007759 -2.2170677 -2.379557 2.0805566 0.14274539 1.3675123 -1.002288
-2.198091 -0.02836382 1.2458675 0.71245587 0.9833919 0.12161155 -3.0279841 2.1813884
-4.582512 0.4426689 -0.9187266 3.3874507 2.04131 3.0943635 -1.7903894 1.946815
-3.773183 -3.5152042 1.1322268 3.9514542 2.7722573 -0.5103688 -1.6734484 -0.0022846402
00000000: b370 1240 accc 1840 271b 74c0 020e 5640
00000010: e4b7 69c0 6d30 5c40 e624 94bf 5d3b 5c40
00000020: cf98 6740 a27f 7ac0 ba1d 71c0 f393 5b40
00000030: 058b 34c0 206a 6140 836d 61c0 afa8 8fc0
00000040: e1cc 3f40 93c7 4d40 ff67 42c0 1223 1cbd
00000050: 9479 92c0 107e 4740 b979 5640 b23d 1940
00000060: e4b2 4e40 83fb 6440 d770 4d40 7741 2240
00000070: 7390 8240 6c47 5940 9471 7840 dee9 2340
00000080: ca2a 0e40 b0a3 5440 ad43 5640 5162 85c0
00000090: 92d8 71bf 0e32 b3bf 1442 a1c0 5dff a03f
000000a0: d6ad 6f40 88c0 82c0 1f9a ca3f 5b86 95bf
000000b0: 35b7 9cc0 5dd5 3040 1cc0 8540 d0da 3ebf
000000c0: 9168 85c0 f7ed 74c0 d837 84bf 900e 12c0
000000d0: 7b8e 9ec0 8c90 3e40 9711 483f f972 febd
000000e0: ff7e 91be c7b7 8140 3af5 acc0 88e2 bfc0
000000f0: 6165 95c0 f593 7b40 ad6f 11bf b2c8 c2c0
00000100: c5e3 8b3f 2db1 4f40 3a29 89c0 9067 2140
00000110: ff1c 8d40 1a54 e2bf b3dc 7040 3adf 5bc0
00000120: 954b 92c0 39e2 3640 22d4 82c0 f116 8fbe
00000130: c87d 253f d03f 3040 9ef1 b13d 8cbe 8e40
00000140: cd24 5c40 473c 2d3f b519 9340 09a7 803f
00000150: f28a c5c0 d8fb 7e40 d555 a73e 194c c73f
00000160: 1f26 aec0 df8d bd3f af93 8740 e954 853e
00000170: 929e 3ebf d908 babf 773e 29bf 4ea7 14c1
00000180: c12e c3c0 a4ea 933f ba47 c640 5689 a240
00000190: 05b2 9a3e 8ad6 2e3f 3eca 3cbf 2712 e83e
000001a0: 7853 3cbf fb65 bcbe 2be9 43bf e77e 09bf
000001b0: 1cf4 b4be 71e7 763f bba5 263f 0c9c 28be
000001c0: 004f 0540 7bf7 0fbf b251 6b3e 5cd5 4bbf
000001d0: 1ba0 e4be 304a 86bf 3fa6 36bf 1981 41bf
000001e0: 6217 6abd 68d2 48c0 de98 14bf 8f80 dbbd
000001f0: d2fd b7bf dbce 08c0 0753 abbf 11f5 f0bf
00000200: 17de ea3f def8 ec3f 149b 4b40 b299 8d3e
00000210: 04a1 1d40 935b 04be 607d 85bd 5b53 4240
00000220: 7d15 0f40 fa6d 96c0 21e5 a2c0 7567 dcbf
00000230: 746c 993f 8594 8dbf 091b b93f 6b87 b33f
00000240: 12cf 9ebe e132 ea3e 5804 9140 2ac1 10c0
00000250: 85a2 3740 d0ac a240 cfae 0bc0 1217 413e
00000260: 0f91 783f 7bc4 3240 ab77 bdc0 b0ef 3140
00000270: beb4 0ac0 70cb 1dc0 cec6 4f40 49af 73c0
00000280: 8942 2e40 7d88 65c0 8037 a6c0 6a5b f03f
00000290: 8061 ee3f 774d 3f40 93f6 a5bf 0297 5ec1
000002a0: a780 4341 9293 2ec0 8576 0341 7b9e 2d40
000002b0: 79e4 5240 ac37 d840 a660 0941 d332 9f40
000002c0: b807 bec0 b09e e240 f132 4740 4181 8440
000002d0: 36ec 9b3f c6b0 df40 76d1 0d3e 032c 37c0
000002e0: 7f7e 2cc0 ec55 5abf 9dc6 6c40 5a3a 8140
000002f0: 1e3a c140 f024 0d41 bc98 dbbf c94e 76bf
00000300: aef2 cd3f 111d a9c0 e6ca 67bf be12 c03f
00000310: 0df4 7e40 8b3f debf acc1 5140 6615 5340
00000320: 48fc c7bf 767c 6b3f 88bf 20bf 76c7 1c3f
00000330: 29dc 21bf e1c1 7b3f b159 b1be 70be dd3e
00000340: 91d6 27be 76a3 a43e 65e8 a6bf dbd8 c6bd
00000350: 63f0 a43e 8d10 85be edc7 d83e 39da 063f
00000360: b891 d2bd c183 8c3f 72aa 243d 869d fbbe
00000370: 8ad6 f53e 8c9f 2c40 c48d 10bf 9bd6 c3bf
00000380: 472d ef3e 5c70 e13d 70e4 0dc0 a94a 18c0
00000390: d727 0540 d92b 123e a50a af3f f94a 80bf
000003a0: 86ad 0cc0 3e5b e8bc 9678 9f3f 8263 363f
000003b0: 92bf 7b3f 7a0f f93d 7eca 41c0 de9b 0b40
000003c0: f0a3 92c0 80a5 e23e ab31 6bbf fecb 5840
000003d0: d3a4 0240 0d0a 4640 7b2b e5bf 3c31 f93f
000003e0: d57b 71c0 1bf9 60c0 cfec 903f a0e4 7c40
000003f0: aa6c 3140 88a7 02bf 8f33 d6bf e7b9 15bb

variational_strategy.base_variational_strategy._variational_distribution.chol_variational_covar f4 [20, 100, 100]
0.4986307 0.0 0.0 0.0 0.0 0.0 0.0 0.0
0.0 0.0 0.0 0.0 0.0 0.0 0.0 0.0
0.0 0.0 0.0 0.0 0.0 0.0 0.0 0.0
0.0 0.0 0.0 0.0 0.0 0.0 0.0 0.0
0.0 0.0 0.0 0.0 0.0 0.0 0.0 0.0
0.0 0.0 0.0 0.0 0.0 0.0 0.0 0.0
0.0 0.0 0.0 0.0 0.0 0.0 0.0 0.0
0.0 0.0 0.0 0.0 0.0 0.0 0.0 0.0
0.0 0.0 0.0 0.0 0.0 0.0 0.0 0.0
0.0 0.0 0.0 0.0 0.0 0.0 0.0 0.0
0.0 0.0 0.0 0.0 0.0 0.0 0.0 0.0
0.0 0.0 0.0 0.0 0.0 0.0 0.0 0.0
0.0 0.0 0.0 0.0 -0.48730522 0.81616604 0.0 0.0
0.0 0.0 0.0 0.0 0.0 0.0 0.0 0.0
0.0 0.0 0.0 0.0 0.0 0.0 0.0 0.0
0.0 0.0 0.0 0.0 0.0 0.0 0.0 0.0
0.0 0.0 0.0 0.0 0.0 0.0 0.0 0.0
0.0 0.0 0.0 0.0 0.0 0.0 0.0 0.0
0.0 0.0 0.0 0.0 0.0 0.0 0.0 0.0
0.0 0.0 0.0 0.0 0.0 0.0 0.0 0.0
0.0 0.0 0.0 0.0 0.0 0.0 0.0 0.0
0.0 0.0 0.0 0.0 0.0 0.0 0.0 0.0
0.0 0.0 0.0 0.0 0.0 0.0 0.0 0.0
0.0 0.0 0.0 0.0 0.0 0.0 0.0 0.0
0.0 0.0 0.0 0.0 0.0 0.0 0.0 0.0
-0.43230945 -0.27871376 0.73455894 0.0 0.0 0.0 0.0 0.0
0.0 0.0 0.0 0.0 0.0 0.0 0.0 0.0
0.0 0.0 0.0 0.0 0.0 0.0 0.0 0.0
0.0 0.0 0.0 0.0 0.0 0.0 0.0 0.0
0.0 0.0 0.0 0.0 0.0 0.0 0.0 0.0
0.0 0.0 0.0 0.0 0.0 0.0 0.0 0.0
0.0 0.0 0.0 0.0 0.0 0.0 0.0 0.0
00000000: 864c ff3e 0000 0000 0000 0000 0000 0000
00000010: 0000 0000 0000 0000 0000 0000 0000 0000
00000020: 0000 0000 0000 0000 0000 0000 0000 0000
00000030: 0000 0000 0000 0000 0000 0000 0000 0000
00000040: 0000 0000 0000 0000 0000 0000 0000 0000
00000050: 0000 0000 0000 0000 0000 0000 0000 0000
00000060: 0000 0000 0000 0000 0000 0000 0000 0000
00000070: 0000 0000 0000 0000 0000 0000 0000 0000
00000080: 0000 0000 0000 0000 0000 0000 0000 0000
00000090: 0000 0000 0000 0000 0000 0000 0000 0000
000000a0: 0000 0000 0000 0000 0000 0000 0000 0000
000000b0: 0000 0000 0000 0000 0000 0000 0000 0000
000000c0: 0000 0000 0000 0000 0000 0000 0000 0000
000000d0: 0000 0000 0000 0000 0000 0000 0000 0000
000000e0: 0000 0000 0000 0000 0000 0000 0000 0000
000000f0: 0000 0000 0000 0000 0000 0000 0000 0000
00000100: 0000 0000 0000 0000 0000 0000 0000 0000
00000110: 0000 0000 0000 0000 0000 0000 0000 0000
00000120: 0000 0000 0000 0000 0000 0000 0000 0000
00000130: 0000 0000 0000 0000 0000 0000 0000 0000
00000140: 0000 0000 0000 0000 0000 0000 0000 0000
00000150: 0000 0000 0000 0000 0000 0000 0000 0000
00000160: 0000 0000 0000 0000 0000 0000 0000 0000
00000170: 0000 0000 0000 0000 0000 0000 0000 0000
00000180: 0000 0000 0000 0000 0000 0000 0000 0000
00000190: 1280 f9be 42f0 503f 0000 0000 0000 0000
000001a0: 0000 0000 0000 0000 0000 0000 0000 0000
000001b0: 0000 0000 0000 0000 0000 0000 0000 0000
000001c0: 0000 0000 0000 0000 0000 0000 0000 0000
000001d0: 0000 0000 0000 0000 0000 0000 0000 0000
000001e0: 0000 0000 0000 0000 0000 0000 0000 0000
000001f0: 0000 0000 0000 0000 0000 0000 0000 0000
00000200: 0000 0000 0000 0000 0000 0000 0000 0000
00000210: 0000 0000 0000 0000 0000 0000 0000 0000
00000220: 0000 0000 0000 0000 0000 0000 0000 0000
00000230: 0000 0000 0000 0000 0000 0000 0000 0000
00000240: 0000 0000 0000 0000 0000 0000 0000 0000
00000250: 0000 0000 0000 0000 0000 0000 0000 0000
00000260: 0000 0000 0000 0000 0000 0000 0000 0000
00000270: 0000 0000 0000 0000 0000 0000 0000 0000
00000280: 0000 0000 0000 0000 0000 0000 0000 0000
00000290: 0000 0000 0000 0000 0000 0000 0000 0000
000002a0: 0000 0000 0000 0000 0000 0000 0000 0000
000002b0: 0000 0000 0000 0000 0000 0000 0000 0000
000002c0: 0000 0000 0000 0000 0000 0000 0000 0000
000002d0: 0000 0000 0000 0000 0000 0000 0000 0000
000002e0: 0000 0000 0000 0000 0000 0000 0000 0000
000002f0: 0000 0000 0000 0000 0000 0000 0000 0000
00000300: 0000 0000 0000 0000 0000 0000 0000 0000
00000310: 0000 0000 0000 0000 0000 0000 0000 0000
00000320: aa57 ddbe 92b3 8ebe 0e0c 3c3f 0000 0000
00000330: 0000 0000 0000 0000 0000 0000 0000 0000
00000340: 0000 0000 0000 0000 0000 0000 0000 0000
00000350: 0000 0000 0000 0000 0000 0000 0000 0000
00000360: 0000 0000 0000 0000 0000 0000 0000 0000
00000370: 0000 0000 0000 0000 0000 0000 0000 0000
00000380: 0000 0000 0000 0000 0000 0000 0000 0000
00000390: 0000 0000 0000 0000 0000 0000 0000 0000
000003a0: 0000 0000 0000 0000 0000 0000 0000 0000
000003b0: 0000 0000 0000 0000 0000 0000 0000 0000
000003c0: 0000 0000 0000 0000 0000 0000 0000 0000
000003d0: 0000 0000 0000 0000 0000 0000 0000 0000
000003e0: 0000 0000 0000 0000 0000 0000 0000 0000
000003f0: 0000 0000 0000 0000 0000 0000 0000 0000

mean_module.constant f4 [20, 1]
0.34761226 0.062868826 -0.7197004 -0.94249314 -1.0485314 -0.56447667 -0.27068233 -0.06643035
0.624219 -1.8305376 0.37373587 0.056762274 -0.97237927 -0.4914481 -0.62509537 0.0811893
-0.6785747 -0.13676624 0.081519134 -0.7817148
00000000: 3cfa b13e 5fc1 803d 493e 38bf 3b47 71bf
00000010: 4736 86bf 8b81 10bf e096 8abe a30c 88bd
00000020: d1cc 1f3f 0e4f eabf 4f5a bf3e 8f7f 683d
00000030: d9ed 78bf 169f fbbe 4006 20bf 9346 a63d
00000040: 12b7 2dbf 730c 0cbe 81f3 a63d 761e 48bf

covar_module.raw_outputscale f4 [20]
-1.6182662 0.36508158 -2.0012147 -1.2871635 -1.4353758 -2.5873003 -1.97873 -0.17933248
-1.6253486 -2.0407825 -2.2198284 -2.1060405 -2.0343184 -1.7577946 -2.234749 -1.3105856
-2.5388737 -1.6003554 -1.7066995 -1.7634411
00000000: 5923 cfbf f9eb ba3e e713 00c0 c6c1 a4bf
00000010: 65ba b7bf 5496 25c0 0647 fdbf efa2 37be
00000020: 6c0b d0bf 2e9c 02c0 ab11 0ec0 5ec9 06c0
00000030: 4632 02c0 6aff e0bf 2106 0fc0 45c1 a7bf
00000040: e87c 22c0 72d8 ccbf 2175 dabf 70b8 e1bf

covar_module.base_kernel.raw_lengthscale f4 [20, 1, 13]
3.7979398 56.806156 216.59805 5.987386 6.006578 6.2055197 7.0643497 6.1296935
8.606391 7.7302628 7.094507 6.6997523 8.109903 53.510864 10.590596 2.3545945
17.791248 17.65914 16.70859 18.314365 15.919461 24.26276 19.21041 23.133442
19.990833 20.23331 7.674321 15.700405 8.083505 3.068622 4.3937283 4.3641157
5.987552 4.0472727 9.202059 6.348258 6.7603526 6.7750535 7.055253 10.740741
125.716515 2.6251566 5.2732515 5.199363 5.34626 6.250828 5.300552 8.4724865
8.682192 6.8115115 7.0905166 7.644992 5.073404 138.59952 63.045467 6.3665686
6.4955006 6.516495 6.567461 7.2923164 8.535812 7.524895 7.737146 7.683508
7.785025 12.213705 53.17808 22.892027 5.7945147 6.6593804 7.427621 7.4348745
5.9735837 10.167766 7.3510942 7.750451 6.872709 7.460101 7.8360205 23.556606
44.363243 5.402711 6.010767 6.1315 6.553489 5.350472 8.739084 6.6551266
6.724689 6.601223 8.372324 17.15557 7.364189 4.8289733 5.736356 7.116708
7.0872746 9.103925 4.5244346 14.500813 5.1927924 9.065467 9.615499 12.976774
10.10683 16.62735 14.781399 5.1836886 6.573938 5.0374055 7.25131 6.358002
9.7549305 11.358049 8.838098 6.177466 8.57677 4.454439 38.550884 20.485466
1.3525032 1.8245581 3.1846263 6.82957 1.3054038 17.396925 16.121954 11.380413
12.124616 22.535486 7.5815415 43.082813 20.819069 6.5614753 6.0122495 7.6996846
6.1393456 7.436834 10.522868 6.6789765 8.924143 8.543285 8.322682 5.706854
64.928 62.419502 4.5064898 4.966107 5.256983 5.300023 3.978539 9.894219
6.1099434 6.2874618 5.7766232 5.7488823 5.6788516 39.506367 48.944893 7.6056933
7.698852 8.09061 8.095242 8.533756 8.240993 7.956484 8.525434 8.048638
9.182819 7.2234583 31.034586 38.98923 7.3660355 6.683757 6.6408253 7.065687
6.904384 8.444694 8.1890135 6.9655085 7.017148 9.093121 6.732679 4.8851213
28.804909 6.4088993 11.273336 7.728061 6.187548 5.370038 17.195892 8.522315
8.590629 7.216417 11.102035 14.455813 79.2795 0.88221854 13.414007 13.57963
15.087098 14.524496 14.593061 12.607624 14.427521 12.250107 12.286169 13.888086
8.507598 17.185726 10.975628 2.544751 3.346836 4.952272 7.613764 1.6782696
26.926294 7.414151 10.57258 8.226861 19.322693 12.272685 8.357559 144.03705
0.20016475 1.3084172 2.2857404 5.6455593 1.3464761 28.604988 9.5947695 10.174852
8.67157 13.9046 3.8132114 8.6754055 6.6662793 16.297703 13.645031 13.517139
19.156218 12.886654 22.201052 8.620341 12.89149 16.081133 7.396387 8.401181
3.5844212 89.15185 4.9563813 5.7761664 5.7370753 7.244233 5.186328 11.350335
00000000: 7211 7340 8139 6342 1a99 5843 ab98 bf40
00000010: e335 c040 9e93 c640 270f e240 7326 c440
00000020: c7b3 0941 505e f740 3406 e340 5f64 d640
00000030: 2ac2 0141 200b 5642 1573 2941 adb1 1640
00000040: 7a54 8e41 eb45 8d41 31ab 8541 d283 9241
00000050: 1db6 7e41 221a c241 ebae 9941 4a11 b941
00000060: 3aed 9f41 d2dd a141 0a94 f540 dc34 7b41
00000070: 0956 0141 4e64 4440 6c99 8c40 d6a6 8b40
00000080: 079a bf40 4283 8140 a23b 1341 ee24 cb40
00000090: cf54 d840 3dcd d840 a2c4 e140 13da 2b41
000000a0: db6e fb42 9102 2840 7abe a840 2f61 a640
000000b0: 9014 ab40 c806 c840 1f9e a940 4e8f 0741
000000c0: 42ea 0a41 e7f7 d940 83e5 e240 c6a3 f440
000000d0: 5359 a240 7a99 0a43 8f2e 7c42 eeba cb40
000000e0: 24db cf40 2187 d040 a428 d240 a85a e940
000000f0: b092 0841 f1cb f040 b396 f740 4cdf f540
00000100: ed1e f940 566b 4341 5bb6 5442 df22 b741
00000110: aa6c b940 a519 d540 12af ed40 7eea ed40
00000120: 9927 bf40 2baf 2241 2a3c eb40 b203 f840
00000130: 3bed db40 26b9 ee40 aec0 fa40 ee73 bc41
00000140: f673 3142 02e3 ac40 3458 c040 3f35 c440
00000150: 2fb6 d140 1137 ab40 4ad3 0b41 ccf6 d440
00000160: a730 d740 383d d340 0af5 0541 9b3e 8941
00000170: 70a7 eb40 f386 9a40 3a90 b740 12bc e340
00000180: f4ca e240 ada9 1141 2bc8 9040 5403 6841
00000190: 5b2b a640 270c 1141 15d9 1941 dea0 4f41
000001a0: 93b5 2141 d004 8541 9c80 6c41 c7e0 a540
000001b0: b35d d240 6d32 a140 bb0a e840 c174 cb40
000001c0: 3214 1c41 92ba 3541 d968 0d41 cdad c540
000001d0: 733a 0941 c48a 8e40 1b34 1a42 3ce2 a341
000001e0: d31e ad3f 1f8b e93f ebd0 4b40 d68b da40
000001f0: 7917 a73f e72c 8b41 c3f9 8041 2c16 3641
00000200: 6dfe 4141 ad48 b441 fd9b f240 cd54 2c42
00000210: 748d a641 9bf7 d140 5964 c040 d163 f640
00000220: 8575 c440 8bfa ed40 ab5d 2841 2dba d540
00000230: 4ac9 0e41 4cb1 0841 b529 0541 8c9e b640
00000240: 23db 8142 92ad 7942 2a35 9040 59ea 9e40
00000250: 3439 a840 ca99 a940 62a0 7e40 b94e 1e41
00000260: a884 c340 e332 c940 19da b840 d8f6 b740
00000270: 27b9 b540 8506 1e42 92c7 4342 d761 f340
00000280: ff5c f640 2373 0141 1c86 0141 448a 0841
00000290: 1bdb 0341 849b fe40 2d68 0841 39c7 0041
000002a0: d4ec 1241 9226 e740 d546 f841 f9f4 1b42
000002b0: 90b6 eb40 56e1 d540 a481 d440 1c1a e240
000002c0: b7f0 dc40 771d 0741 3306 0341 72e5 de40
000002d0: 7a8c e040 6c7d 1141 1b72 d740 ea52 9c40
000002e0: 7470 e641 b415 cd40 965f 3441 474c f740
000002f0: 6500 c640 5ad7 ab40 3091 8941 675b 0841
00000300: 3773 0941 e3ec e640 efa1 3141 034b 6741
00000310: 1b8f 9e42 13d9 613f c69f 5641 2a46 5941
00000320: c164 7141 5664 6841 2e7d 6941 d4b8 4941
00000330: 20d7 6641 7000 4441 2694 4441 9a35 5e41
00000340: 1f1f 0841 5e7c 8941 2c9c 2f41 33dd 2240
00000350: 9032 5640 0379 9e40 f4a3 f340 8ad1 d63f
00000360: 0d69 d741 ba40 ed40 4a29 2941 39a1 0341
00000370: e094 9a41 eb5c 4441 90b8 0541 7c09 1043
00000380: fdf7 4c3e 377a a73f 9249 1240 6ca8 b440
00000390: 5459 ac3f 04d7 e441 2d84 1941 32cc 2241
000003a0: c0be 0a41 3e79 5e41 a80b 7440 76ce 0a41
000003b0: 2952 d540 b261 8241 0c52 5a41 3446 5841
000003c0: ef3f 9941 bc2f 4e41 c19b b141 ebec 0941
000003d0: 8b43 4e41 29a6 8041 34af ec40 3d6b 0641
000003e0: 2867 6540 bf4d b242 ad9a 9e40 5bd6 b840
000003f0: 1f96 b740 c2d0 e740 66f6 a540 f99a 3541
