state/mogp_model_lmc_4_state.pth (torch, 919806 bytes, 7 tensors)

variational_strategy.lmc_coefficients f4 [20, 20]
1.1430239e-11 -9.6129285e-12 9.740037e-12 7.1602384e-11 2.432668e-10 6.089355e-10 1.119506e-09 1.4189054e-09
-2.4533567e-10 -4.4955626e-09 -9.413929e-09 -1.4498309e-08 -1.0827694e-08 -6.917408e-09 -1.0565947e-08 3.261495e-09
9.5637915e-09 2.0000309e-08 2.3540588e-08 1.5798504e-08 -1.5256987e-10 1.315543e-10 -7.06973e-11 -7.174198e-10
-2.364761e-09 -5.0110542e-09 -6.5556764e-09 -1.4572208e-09 6.5414807e-09 2.3903633e-08 5.7620372e-08 1.14855744e-07
1.2395886e-07 9.3775384e-08 6.913691e-08 7.2082976e-08 1.1736014e-08 -9.7998985e-08 -2.6128077e-07 -4.866101e-07
-2.0961251e-12 2.2993057e-12 9.855291e-13 -6.3234175e-12 -2.6344121e-11 -6.2421304e-11 -1.12353696e-10 -1.5737592e-10
-1.5851921e-10 -2.1173421e-10 -5.349671e-10 -1.1070407e-09 -8.444029e-10 2.3351194e-09 5.435172e-09 6.2733885e-09
4.6624185e-09 1.6984538e-09 -1.6868648e-09 -1.7821133e-08 1.13184136e-10 -7.6398006e-11 -2.0933346e-12 4.935136e-10
1.548832e-09 2.6246245e-09 -4.168824e-11 -1.3518462e-08 -3.0886508e-08 -2.8527394e-08 -1.7131342e-08 -3.926615e-08
-2.9452986e-08 -1.4037596e-08 -5.144859e-08 -8.8219785e-08 -2.9258993e-08 9.946286e-08 1.9005377e-07 2.949248e-07
5.836152e-11 -3.6561684e-11 1.1380684e-10 8.5007484e-10 2.701821e-09 8.876263e-09 1.4200637e-08 -1.0962792e-09
-3.388812e-08 -5.870093e-08 -8.093269e-08 -6.840624e-08 -6.575776e-08 -3.9188155e-08 -2.2152072e-08 3.3061234e-08
7.610224e-08 1.01912775e-07 1.2897128e-07 1.3160285e-07 2.0620222e-10 -1.8347626e-10 6.7030666e-11 8.6725277e-10
3.0199105e-09 6.5536154e-09 9.240533e-09 4.794716e-09 -3.019479e-09 -1.9930352e-08 -6.819206e-08 -1.4941847e-07
-1.7177699e-07 -1.3255503e-07 -1.15623195e-07 -1.0900528e-07 -8.761419e-09 1.4438814e-07 3.5493912e-07 6.046595e-07
2.4509847e-10 -1.8545636e-10 9.504092e-12 9.068373e-10 2.9973206e-09 5.892485e-09 7.0466593e-09 -2.661004e-09
-2.2539448e-08 -3.8322238e-08 -6.230804e-08 -1.33606e-07 -1.6483315e-07 -1.3152378e-07 -1.3731614e-07 -1.3026865e-07
-9.4603285e-09 2.0136922e-07 4.1129954e-07 6.521087e-07 0.008367145 -0.0028571319 -0.00087949034 0.010940582
0.023087867 0.03153569 0.036413644 0.03863337 0.038291108 0.035509836 0.032014824 0.028058998
0.023658974 0.01833778 0.012722846 0.0071652876 0.0012467132 -0.004891516 -0.010752836 -0.01590237
-0.00015404115 -0.018303813 0.0015449876 0.0203202 0.02982637 0.03249311 0.030820323 0.026338452
0.020807458 0.016362201 0.011997131 0.008508523 0.005517181 0.003761003 0.0031199364 0.0031726686
0.004086694 0.0056515406 0.008379728 0.011352017 -0.016847188 0.012824383 0.018663103 0.006998464
-0.005832452 -0.015163544 -0.02059079 -0.02279408 -0.022153927 -0.020219166 -0.017336903 -0.014021019
-0.01051381 -0.006785272 -0.0033015069 -0.00013340882 0.002940967 0.005997816 0.008369217 0.010448254
-1.1791833e-12 1.0567488e-12 -1.1525183e-12 -1.0322236e-11 -3.689624e-11 -9.6259986e-11 -1.3522763e-10 6.10001e-11
4.870491e-10 6.208748e-10 2.8374253e-10 -1.1265889e-09 -7.1418993e-10 1.0672562e-09 3.7249763e-09 3.6246186e-09
4.853232e-10 -1.6762187e-09 -1.7153947e-09 -6.872191e-09 -2.526325e-10 2.0134194e-10 -1.6356011e-10 -1.2987578e-09
-4.2038955e-09 -8.901745e-09 -1.1904115e-08 -4.161827e-09 1.7710198e-08 5.83357e-08 1.1533536e-07 1.8942058e-07
2.1463087e-07 1.7811901e-07 1.0988746e-07 4.6482125e-08 -6.771587e-08 -2.283533e-07 -4.2317382e-07 -6.636571e-07
5.416454e-11 -3.552545e-11 9.053733e-11 7.453225e-10 2.4072018e-09 8.1817975e-09 1.3703021e-08 7.5210804e-10
-2.9011362e-08 -5.2324875e-08 -7.37599e-08 -6.4146384e-08 -6.38404e-08 -4.0043844e-08 -2.3776336e-08 2.7493943e-08
00000000: 3815 492d c81c 29ad 3a59 2b2d 8f74 9d2e
00000010: c2bc 852f 0762 2730 1edd 9930 4c03 c330
00000020: eddf 86af 6377 9ab1 e6ba 21b2 3d14 79b2
00000030: b404 3ab2 2aae edb1 8785 35b2 d420 6031
00000040: 004e 2432 25cd ab32 4d36 ca32 47b5 8732
00000050: 9ac0 27af 3ea5 102f 0b77 9bae ee33 45b0
00000060: 5181 22b1 b32d acb1 5740 e1b1 6647 c8b0
00000070: 79c3 e031 a554 cd32 457a 7733 9da6 f633
00000080: 8d19 0534 9061 c933 6b78 9433 09cc 9a33
00000090: 899f 4932 8373 d2b3 2846 8cb4 979f 02b5
000000a0: 6f80 13ac 9ccc 212c 6eb3 8a2b 487c deac
000000b0: b0b9 e7ad 1244 89ae 8211 f7ae 6209 2daf
000000c0: 314b 2eaf e2cd 68af f70c 13b0 8826 98b0
000000d0: 921b 68b0 db77 2031 47c0 ba31 4f8d d731
000000e0: 1133 a031 086f e930 47d7 e7b0 1615 99b2
000000f0: 01e5 f82e 4100 a8ae 2a4e 13ac efa7 0730
00000100: aede d430 e25c 3431 c958 37ae d33e 68b2
00000110: 13a8 04b3 670c f5b2 3828 93b2 97a5 28b3
00000120: cdff fcb2 002a 71b2 53f8 5cb3 5773 bdb3
00000130: 3555 fbb2 4998 d533 9511 4c34 2856 9e34
00000140: 9d56 802e cccc 20ae 8e43 fa2e b3aa 6930
00000150: f0aa 3931 387e 1832 10f7 7332 e5ab 96b0
00000160: 628c 11b3 5b1e 7cb3 38cd adb3 bae6 92b3
00000170: b636 8db3 d54f 28b3 ec48 beb2 36ff 0d33
00000180: a66d a333 24db da33 5b7b 0a34 b74e 0d34
00000190: c4b8 622f fabb 49af e966 932e 7d63 6e30
000001a0: d486 4f31 362e e131 4bc0 1e32 c5be a431
000001b0: 3c7f 4fb1 4f33 abb2 fb70 92b3 d66f 20b4
000001c0: b371 38b4 7354 0eb4 864c f8b3 4916 eab3
000001d0: 2185 16b2 1c09 1b34 768e be34 e24f 2235
000001e0: 8bbe 862f 53e9 4baf a032 272d 0145 7930
000001f0: 6cf9 4d31 d976 ca31 121f f231 e1dc 36b1
00000200: c59c c1b2 bf97 24b3 35ce 85b3 5675 0fb4
00000210: fefc 30b4 fb38 0db4 2c71 13b4 f9df 0bb4
00000220: f786 22b2 f337 5834 94d0 dc34 920c 2f35
00000230: 5a16 093c b83e 3bbb 998d 66ba 2040 333c
00000240: c422 bd3c 912b 013d 7926 153d 063e 1e3d
00000250: 23d7 1c3d c372 113d fa21 033d fcdb e53c
00000260: 77d0 c13c 1d39 963c 7c73 503c caca ea3b
00000270: c168 a33a 0349 a0bb aa2c 30bc b045 82bc
00000280: 1b86 21b9 e1f1 95bc 2e81 ca3a 8c76 a63c
00000290: 6e56 f43c 7f17 053d e77a fc3c bdc3 d73c
000002a0: 6774 aa3c 060a 863c 9d8f 443c 5567 0b3c
000002b0: 78c9 b43b 297b 763b d977 4c3b 8cec 4f3b
000002c0: ade9 853b 8f30 b93b 204b 093c cffd 393c
000002d0: 1d03 8abc 5c1d 523c 5de3 983c 5f53 e53b
000002e0: 271e bfbb 8370 78bc 04ae a8bc a7ba babc
000002f0: 277c b5bc aaa2 a5bc 1f06 8ebc 6bb8 65bc
00000300: 1e42 2cbc fd56 debb 185e 58bb a8e3 0bb9
00000310: 3dbd 403b 5489 c43b 0a1f 093c 272f 2b3c
00000320: 8ef4 a5ab 63b9 942b d933 a2ab 3897 35ad
00000330: 7945 22ae 8ead d3ae 32af 14af 0124 862e
00000340: 09e1 0530 2eaa 2a30 36fd 9b2f 53d6 9ab0
00000350: a650 44b0 bdae 9230 7afa 7f31 f714 7931
00000360: 9667 0530 b460 e6b0 16c3 ebb0 6e20 ecb1
00000370: dde2 8aaf b860 5d2f 14d6 33af fa7f b2b0
00000380: db71 90b1 4aee 18b2 da82 4cb2 d1ff 8eb1
00000390: 2321 9832 c88c 7a33 49ae f733 8863 4b34
000003a0: 4975 6634 fb40 3f34 45fb eb33 a3a3 4733
000003b0: 316b 91b3 4731 75b4 9130 e3b4 2b26 32b5
000003c0: da37 6e2e 1a3e 1cae fc17 c72e 69df 4c30
000003d0: f16b 2531 ed8f 0c32 866a 6b32 e6bc 4e30
000003e0: a934 f9b2 cfbb 60b3 ef65 9eb3 d9c0 89b3
000003f0: a218 89b3 acfc 2bb3 b73c ccb2 d22b ec32

variational_strategy.base_variational_strategy.inducing_points f4 [20, 100, 13]
-2.7255912 -1.6071566 0.49892774 0.68692195 -2.4432778 2.6049478 -2.7040272 -2.8232872
-2.2730455 -2.5404308 -2.5568724 -2.1143153 -0.25513965 -5.8629265 3.5441883 3.3287044
5.374343 -4.5273347 4.1520543 -4.2862616 4.799055 5.1662235 4.5907564 4.4297824
5.4628253 4.0336294 1.2698774 -1.3676684 -0.043230224 1.2901459 1.2770541 2.3819988
-2.0315351 -1.9512808 1.169058 -1.7931278 -2.9243283 1.0537375 -1.2194514 -2.6341138
-1.5426971 0.5446409 0.77616477 -2.5169492 2.5567064 -2.6448658 -2.697205 -2.4447122
-2.4512308 -2.4901478 -2.1500337 -0.46963352 1.4004568 -1.6751022 -1.1649315 1.4102535
1.4394947 2.57591 -2.2552302 -1.94253 1.3072894 -1.6245794 -2.3808973 1.3046216
-1.3452455 2.3675401 0.8524518 0.7440727 2.3858292 2.4571648 -2.4138525 2.4354808
2.3630352 2.3778572 2.2206748 2.4251957 2.2879643 -2.3387976 2.2719789 0.8625333
0.45795768 2.1834126 2.3537347 -2.282043 2.3181272 2.1287289 2.2697124 1.9436215
2.2953496 2.2648911 -2.1636157 -5.462858 4.216457 -4.6447506 5.8356614 -6.6860957
-5.3448443 -3.8443909 -4.6848817 5.780707 4.4035354 -6.9041386 6.730688 -4.7801447
-1.7269381 -1.9472356 -0.41218412 1.1495733 -1.5771394 2.5682418 -2.743485 -2.9214916
-2.0323787 -2.5569122 -2.431401 0.51846147 -1.0060916 2.1964097 -0.81047654 -0.60996217
2.112535 2.2405229 0.5264483 2.1766253 -0.45391512 2.147767 1.7621261 -0.5296497
2.1634872 -2.166283 -2.6559138 -1.4064457 1.0661364 -2.6488504 -2.6278632 2.4507852
-2.486625 -2.4350955 -2.5027869 -2.2822306 -2.504286 -2.7337615 2.7067218 -2.616124
-1.4038867 1.1739838 -2.722648 -2.6149015 2.515404 -2.5397496 -2.482877 -2.5096798
-2.3371315 -2.5806572 -2.6513762 2.723921 -4.2428684 5.301857 6.102331 -3.83635
-6.1138473 -5.665924 5.1559825 6.700322 3.5708807 -3.9259887 5.069525 5.7740626
4.255908 -2.6161664 -0.95218545 1.7188655 -2.6532178 -2.6509948 2.5917656 -2.6035948
-2.5543969 -2.552956 -2.393556 -2.6259496 -2.6393101 2.6818233 7.2775493 -4.2615833
4.5297155 -4.7217445 -4.6233277 5.6766524 -4.828681 5.0512676 5.582597 5.0612416
-4.486598 -4.679712 4.4560986 2.2144387 0.5889693 0.4684337 2.0617747 2.2325282
-2.0950055 2.230358 0.17693718 2.1807368 1.7526405 2.1959033 2.15888 -2.0383408
-2.7922843 -1.6114494 0.26874208 0.6284657 -2.6769135 2.3261857 -2.3471217 -2.310532
-2.4421186 -2.163297 -2.342038 -2.840806 2.6015296 -5.111342 -3.5602515 2.0085335
-4.816082 1.2469479 4.916536 -5.5296507 8.052576 -4.8713303 5.028145 -4.5537605
5.142818 4.956652 2.1752336 0.98238635 1.0638702 2.6677723 2.338317 -2.3731723
2.4283705 2.2896488 2.2421825 2.0483708 2.43356 -0.2966779 -2.1854649 2.239983
-1.5171489 -0.598904 2.5602994 2.292556 -2.3973913 2.4435568 2.355323 2.2192152
00000000: 1670 2ec0 4fb7 cdbf 7573 ff3e 1eda 2f3f
00000010: aa5e 1cc0 77b7 2640 c80e 2dc0 bdb0 34c0
00000020: 9479 11c0 6b96 22c0 cca3 23c0 f150 07c0
00000030: aaa1 82be 189d bbc0 fbd3 6240 7e09 5540
00000040: 9efa ab40 eddf 90c0 a1dd 8440 0e29 89c0
00000050: dc91 9940 b451 a540 7ae7 9240 c7c0 8d40
00000060: 77cf ae40 7e13 8140 588b a23f c20f afbf
00000070: 2d12 31bd 8023 a53f 8276 a33f ab72 1840
00000080: ac04 02c0 92c3 f9bf b1a3 953f 3685 e5bf
00000090: 3228 3bc0 dfe0 863f fc16 9cbf 5295 28c0
000000a0: 1977 c5bf 966d 0b3f bcb2 463f b215 21c0
000000b0: 14a1 2340 7b45 29c0 029f 2cc0 2a76 1cc0
000000c0: f7e0 1cc0 955e 1fc0 279a 09c0 ce73 f0be
000000d0: 2b42 b33f c069 d6bf 7a1c 95bf 3083 b43f
000000e0: 5d41 b83f b6db 2440 b155 10c0 d3a4 f8bf
000000f0: 4255 a73f 38f2 cfbf 9f60 18c0 d7fd a63f
00000100: 0131 acbf c785 1740 483a 5a3f 8c7b 3e3f
00000110: 6db1 1840 3042 1d40 8f7c 1ac0 ebde 1b40
00000120: f83b 1740 d02e 1840 891f 0e40 6836 1b40
00000130: 026e 1240 dcae 15c0 1a68 1140 fbce 5c3f
00000140: 6e79 ea3e 08bd 0b40 97a3 1640 fe0c 12c0
00000150: 325c 1440 183d 0840 f842 1140 97c8 f83f
00000160: 02e7 1240 faf3 1040 ae78 0ac0 bccf aec0
00000170: 37ed 8640 cca1 94c0 bdbd ba40 7ff4 d5c0
00000180: f708 abc0 800a 76c0 8dea 95c0 8dfb b840
00000190: c3e9 8c40 b4ee dcc0 cc61 d740 f2f6 98c0
000001a0: 4f0c ddbf 043f f9bf cc09 d3be 3825 933f
000001b0: b4df c9bf 135e 2440 4295 2fc0 b8f9 3ac0
000001c0: 7e12 02c0 73a4 23c0 139c 1bc0 e4b9 043f
000001d0: 9cc7 80bf fa91 0c40 647b 4fbf 7b26 1cbf
000001e0: c633 0740 ba64 0f40 51c5 063f d44d 0b40
000001f0: 9067 e8be 0475 0940 598d e13f 1f97 07bf
00000200: 9376 0a40 61a4 0ac0 7efa 29c0 6a06 b4bf
00000210: 2877 883f c486 29c0 e92e 28c0 aad9 1c40
00000220: dd24 1fc0 9bd8 1bc0 a92d 20c0 1110 12c0
00000230: 3946 20c0 f3f5 2ec0 ee3a 2d40 936e 27c0
00000240: 8fb2 b3bf 1a45 963f dd3f 2ec0 8c5a 27c0
00000250: 61fc 2040 428b 22c0 75e7 1ec0 989e 20c0
00000260: 9093 15c0 7d29 25c0 26b0 29c0 b954 2e40
00000270: 94c5 87c0 d0a8 a940 4c46 c340 c286 75c0
00000280: a3a4 c3c0 404f b5c0 cffd a440 0a69 d640
00000290: 4f89 6440 6643 7bc0 8c39 a240 1fc5 b840
000002a0: 6630 8840 456f 27c0 6dc2 73bf c903 dc3f
000002b0: 52ce 29c0 e6a9 29c0 7ddf 2540 4ca1 26c0
000002c0: 3d7b 23c0 a263 23c0 0630 19c0 8f0f 28c0
000002d0: 75ea 28c0 fea2 2b40 afe1 e840 e45e 88c0
000002e0: 6ef3 9040 8818 97c0 4df2 93c0 23a7 b540
000002f0: 8e84 9ac0 fca3 a140 a2a4 b240 b1f5 a140
00000300: 3692 8fc0 33c0 95c0 5c98 8e40 5db9 0d40
00000310: b1c6 163f 8bd6 ef3e 1ef4 0340 bee1 0e40
00000320: 9214 06c0 2fbe 0e40 052f 353e 3191 0b40
00000330: 8656 e03f ae89 0c40 172b 0a40 2d74 02c0
00000340: c9b4 32c0 f943 cebf 9098 893e 21e3 203f
00000350: 8d52 2bc0 3ae0 1440 3e37 16c0 c2df 13c0
00000360: ac4b 1cc0 7573 0ac0 f3e3 15c0 c4cf 35c0
00000370: 767f 2640 1d90 a3c0 29db 63c0 d08b 0040
00000380: 581d 9ac0 fd9b 9f3f 4354 9d40 e6f2 b0c0
00000390: 5ad7 0041 f0e1 9bc0 90e6 a040 68b8 91c0
000003a0: f791 a440 e59c 9e40 0737 0b40 ac7d 7b3f
000003b0: e62c 883f c8bc 2a40 fca6 1540 0ee2 17c0
000003c0: 6c6a 1b40 9b89 1240 eb7f 0f40 8218 0340
000003d0: 72bf 1b40 2ae6 97be a8de 0bc0 e25b 0f40
000003e0: ef31 c2bf c651 19bf f2db 2340 3db9 1240
000003f0: dc6e 19c0 3c63 1c40 9dbd 1640 9f07 0e40

variational_strategy.base_variational_strategy._variational_distribution.variational_mean f4 [20, 100]
-4.441223e-15 9.555867e-18 3.281929e-16 -4.332777e-15 5.219675e-16 5.933044e-15 6.6685e-15 -4.76976e-18
-3.1752332e-15 1.7982264e-15 -5.076467e-15 -4.975046e-15 2.903499e-17 -4.888124e-15 -6.85606e-17 5.3561955e-15
-4.7845846e-15 -1.1002616e-16 3.8619214e-15 5.61488e-15 -1.4376788e-17 6.245994e-17 -5.040982e-15 1.4399926e-15
-5.14154e-15 -4.8383886e-15 2.1514262e-15 5.535705e-17 3.9448933e-15 -2.5139731e-17 -3.9535754e-15 2.419668e-15
7.2409696e-15 -4.911259e-15 1.1132775e-15 1.485218e-15 -5.266564e-15 1.4949821e-15 -4.8501263e-15 1.4095168e-15
1.4897026e-15 -4.637202e-15 1.3877391e-15 -5.222832e-15 7.3577715e-17 -4.78661e-15 -4.970772e-15 -6.789688e-16
-3.2679634e-15 3.786911e-15 -4.5952304e-15 -8.8739724e-16 6.514885e-16 -3.0612417e-15 -4.612044e-15 1.0718548e-15
1.8272864e-16 -4.4982633e-15 -1.0164575e-15 -4.8185663e-15 3.51957e-15 3.1171387e-16 1.4102614e-15 -1.7307586e-15
5.034142e-16 1.0732808e-15 2.3530716e-16 -4.030457e-16 1.1576006e-15 -5.4002658e-17 -1.7241538e-15 -1.1896142e-15
4.8838766e-16 1.3593584e-15 7.0480473e-16 -3.9941297e-15 -4.1995606e-15 -3.8648504e-16 -2.2812008e-15 1.3193694e-15
1.2560716e-15 2.825892e-16 -6.80963e-17 2.7933262e-16 3.1176572e-15 -3.2621486e-16 -7.2770273e-16 -7.0040585e-17
1.2172337e-15 5.274194e-16 1.6655978e-16 -1.3458134e-15 3.1622253e-15 -9.393181e-16 5.378017e-18 -4.2923334e-16
1.6008831e-15 -1.3491691e-15 -3.455446e-15 5.3962044e-16 5.943909e-14 1.0429961e-14 -2.1537104e-14 -4.8170896e-14
-5.330316e-18 -3.778425e-14 -2.1339329e-16 -1.7510255e-14 -3.7245014e-14 -2.8997892e-14 -8.204869e-16 -1.08861166e-14
-1.4761153e-14 -7.4184436e-17 2.1643718e-14 -3.435586e-14 -1.5167106e-14 -1.6504339e-14 -1.4650665e-14 -6.0691922e-15
-6.1185652e-18 1.0752954e-14 -2.1158519e-16 -3.1110488e-17 -2.9094626e-14 1.3826815e-15 -8.7994685e-16 -9.405335e-17
-3.3645589e-16 -4.5646343e-15 -3.8135205e-16 -2.5905907e-16 2.2073844e-15 1.2469686e-15 -1.0528956e-15 4.9032625e-16
-8.253784e-17 7.000672e-17 -4.5051136e-16 -3.1513336e-15 -5.9575084e-15 -1.3879623e-14 -4.005472e-15 -4.501698e-15
-1.276041e-15 -3.300213e-15 -2.3442918e-16 -3.4323865e-15 -2.9986879e-15 -7.0133936e-16 -8.779254e-16 -2.5084557e-15
-1.3699269e-15 2.4673756e-15 -7.801294e-16 -3.142866e-14 -1.2568595e-15 -4.3175223e-16 4.3869705e-16 2.3454882e-16
7.5389146e-16 -6.4686884e-16 -3.40766e-15 -1.3689858e-15 4.371263e-14 -2.2081312e-15 -1.2579241e-15 -9.680337e-16
-9.314555e-16 -1.8642304e-15 3.344628e-15 -1.3431345e-15 -1.689659e-15 -1.7440925e-15 1.7882663e-14 -9.402525e-16
-1.4079674e-15 6.1780354e-16 -1.5362341e-15 -7.1719137e-16 -1.5315508e-15 -1.1034501e-15 -2.1436079e-15 -5.2685763e-15
-5.854924e-16 -1.8374167e-15 -8.968576e-16 -1.7927764e-15 -2.4571308e-14 7.5410306e-16 -1.3868923e-15 -5.645689e-16
2.1531298e-15 1.6773082e-14 -7.338805e-16 -1.29511e-15 -1.5330514e-15 -1.5898385e-15 -1.538642e-15 -2.1625257e-15
4.324163e-16 3.7657372e-16 -1.7622911e-16 -9.504614e-17 4.736206e-16 -2.1104497e-16 2.767749e-16 -3.8825178e-18
1.6091219e-16 4.45344e-16 4.9086358e-18 -2.017155e-16 -1.4232648e-18 -4.5811645e-18 -2.028837e-16 1.2278374e-17
-1.1335081e-17 3.3408602e-16 -7.146648e-17 -2.064346e-18 1.4786978e-17 1.2193702e-16 1.8505214e-16 3.7458018e-18
1.148764e-16 4.1324241e-16 2.1487879e-16 2.440409e-16 -5.3051755e-17 3.690917e-17 3.803777e-17 7.279126e-17
-6.703349e-18 3.3513208e-16 3.196967e-17 1.8206388e-16 -5.2077254e-19 1.430172e-17 3.4835745e-17 2.326267e-16
4.7971086e-17 5.177953e-17 7.246751e-17 1.371789e-16 1.00072397e-16 9.939364e-17 -2.3013186e-16 7.2564896e-17
7.5045935e-17 5.029743e-17 1.4756026e-16 6.318038e-17 2.6859135e-17 6.221936e-17 4.2953037e-17 -6.861408e-17
00000000: 0d03 a0a7 4e46 3023 b930 bd25 d01a 9ca7
00000010: 6772 1626 acc2 d527 0e42 f027 1cf9 afa2
00000020: b7cc 64a7 6c93 0127 25e6 b6a7 b33e b3a7
00000030: 77e6 0524 fc1c b0a7 0917 9ea4 2ffa c027
00000040: 0162 aca7 fbb3 fda4 f023 8b27 214c ca27
00000050: 3b9a 84a3 d705 9024 da9e b5a7 5a86 cf26
00000060: 563e b9a7 4252 aea7 cf06 1b27 124a 7f24
00000070: 3821 8e27 83df e7a3 4c71 8ea7 ff5a 2e27
00000080: 1471 0228 5ef2 b0a7 b170 a026 df0a d626
00000090: 7bbf bda7 1b73 d726 85be aea7 fe21 cb26
000000a0: 53b0 d626 a412 a7a7 89fe c726 1f2c bca7
000000b0: 9ea8 a924 af74 aca7 4817 b3a7 0eb3 43a6
000000c0: 497b 6ba7 1770 8827 858f a5a7 5cc6 7fa6
000000d0: 5ec7 3b26 f195 5ca7 992a a6a7 7678 9a26
000000e0: faab 5225 2811 a2a7 aa7c 92a6 6e9b ada7
000000f0: 9b9c 7d27 d9b0 b325 763d cb26 b96d f9a6
00000100: 6919 1126 13ad 9a26 35a5 8725 0c57 e8a5
00000110: edd3 a626 160b 79a4 0c7a f8a6 0471 aba6
00000120: a6c4 0c26 79e7 c326 6925 4b26 58e7 8fa7
00000130: 1c4e 97a7 20cb dea5 ba60 24a7 2424 be26
00000140: dd04 b526 cee6 a225 f604 9da4 3806 a125
00000150: a0a6 6027 d10c bca5 fcbe 51a6 aa80 a1a4
00000160: ff6b af26 af04 1826 c507 4025 c0f3 c1a6
00000170: c3dc 6327 b95e 87a6 ef69 c622 a96f f7a5
00000180: 29b6 e626 8e6f c2a6 bafd 78a7 f688 1b26
00000190: 4dd8 8529 b5e3 3b28 2efd c1a8 43f1 58a9
000001a0: 69a7 c4a2 462a 2aa9 9506 76a5 e6b7 9da8
000001b0: 94bc 27a9 4b98 02a9 3f7d 6ca6 5a1b 44a8
000001c0: e7f4 84a8 c30e aba4 04f3 c228 9cb9 1aa9
000001d0: f79c 88a8 6aa8 94a8 22f6 83a8 6baa daa7
000001e0: 37bc e1a2 3fb5 4128 edf0 73a5 c878 0fa4
000001f0: d207 03a9 f243 c726 9ea0 7da6 4cdf d8a4
00000200: 20f4 c1a5 5275 a4a7 a1d5 dba5 5f56 95a5
00000210: 0e0f 1f27 05b5 b326 febc 97a6 b153 0d26
00000220: be51 bea4 ac6c a124 dfd9 01a6 d813 63a7
00000230: 51a4 d6a7 7708 7aa8 f54f 90a7 d630 a2a7
00000240: 9ae5 b7a6 2fce 6da7 a423 87a5 5b54 77a7
00000250: 0714 58a7 b625 4aa6 760b 7da6 d7c0 34a7
00000260: 626d c5a6 0ccb 3127 64db 60a6 c78a 0da9
00000270: ee21 b5a6 62e3 f8a5 42e4 fc25 4c35 8725
00000280: 5f4b 5926 7f72 3aa6 3b8c 75a7 a94a c5a6
00000290: 3bdd 4429 d51c 1fa7 3549 b5a6 2482 8ba6
000002a0: a43c 86a6 fb54 06a7 7f01 7127 eb90 c1a6
000002b0: 6a81 f3a6 a859 fba6 9d12 a128 3281 87a6
000002c0: d4e8 caa6 db11 3226 0965 dda6 62b7 4ea6
000002d0: 40b8 dca6 2006 9fa6 9676 1aa7 0ad2 bda7
000002e0: b7c1 28a6 5b66 04a7 3540 81a6 e32e 01a7
000002f0: 9451 dda8 fc5a 5926 4bdf c7a6 d5b9 22a6
00000300: 3c26 1b27 1814 9728 d386 53a6 20a5 baa6
00000310: 9def dca6 b01e e5a6 dfbd dda6 8fd3 1ba7
00000320: 6245 f925 7914 d925 a72d 4ba5 5729 dba4
00000330: 0883 0826 7b51 73a5 c48c 9f25 583d 8fa2
00000340: e584 3925 965c 0026 c118 b522 e88f 68a5
00000350: 6d09 d2a1 e003 a9a2 b3e8 69a5 fb7e 6223
00000360: 6818 51a3 6596 c025 5dca a4a4 6552 18a2
00000370: c462 8823 7595 0c25 c059 5525 1932 8a22
00000380: 8771 0425 d137 ee25 06bd 7725 15ae 8c25
00000390: 75a8 74a4 a836 2a24 136b 2f24 60d8 a724
000003a0: 574f f7a2 c430 c125 206f 1324 c6e7 5125
000003b0: 76b4 19a1 fbe8 8323 caa6 2024 a419 8625
000003c0: 433a 5d24 7bca 6e24 4419 a724 1128 1e25
000003d0: 51c0 e624 a62f e524 78a9 84a5 c152 a724
000003e0: 4d0b ad24 b9f4 6724 1a20 2a25 1daf 9124
000003f0: 57bb f723 d477 8f24 ff15 4624 9b36 9ea4

variational_strategy.base_variational_strategy._variational_distribution.chol_variational_covar f4 [20, 100, 100]
1.0 0.0 0.0 0.0 0.0 0.0 0.0 0.0
0.0 0.0 0.0 0.0 0.0 0.0 0.0 0.0
0.0 0.0 0.0 0.0 0.0 0.0 0.0 0.0
0.0 0.0 0.0 0.0 0.0 0.0 0.0 0.0
0.0 0.0 0.0 0.0 0.0 0.0 0.0 0.0
0.0 0.0 0.0 0.0 0.0 0.0 0.0 0.0
0.0 0.0 0.0 0.0 0.0 0.0 0.0 0.0
0.0 0.0 0.0 0.0 0.0 0.0 0.0 0.0
0.0 0.0 0.0 0.0 0.0 0.0 0.0 0.0
0.0 0.0 0.0 0.0 0.0 0.0 0.0 0.0
0.0 0.0 0.0 0.0 0.0 0.0 0.0 0.0
0.0 0.0 0.0 0.0 0.0 0.0 0.0 0.0
0.0 0.0 0.0 0.0 -1.9601287e-27 1.0 0.0 0.0
0.0 0.0 0.0 0.0 0.0 0.0 0.0 0.0
0.0 0.0 0.0 0.0 0.0 0.0 0.0 0.0
0.0 0.0 0.0 0.0 0.0 0.0 0.0 0.0
0.0 0.0 0.0 0.0 0.0 0.0 0.0 0.0
0.0 0.0 0.0 0.0 0.0 0.0 0.0 0.0
0.0 0.0 0.0 0.0 0.0 0.0 0.0 0.0
0.0 0.0 0.0 0.0 0.0 0.0 0.0 0.0
0.0 0.0 0.0 0.0 0.0 0.0 0.0 0.0
0.0 0.0 0.0 0.0 0.0 0.0 0.0 0.0
0.0 0.0 0.0 0.0 0.0 0.0 0.0 0.0
0.0 0.0 0.0 0.0 0.0 0.0 0.0 0.0
0.0 0.0 0.0 0.0 0.0 0.0 0.0 0.0
-3.87572e-26 -2.197743e-27 1.0 0.0 0.0 0.0 0.0 0.0
0.0 0.0 0.0 0.0 0.0 0.0 0.0 0.0
0.0 0.0 0.0 0.0 0.0 0.0 0.0 0.0
0.0 0.0 0.0 0.0 0.0 0.0 0.0 0.0
0.0 0.0 0.0 0.0 0.0 0.0 0.0 0.0
0.0 0.0 0.0 0.0 0.0 0.0 0.0 0.0
0.0 0.0 0.0 0.0 0.0 0.0 0.0 0.0
00000000: 0000 803f 0000 0000 0000 0000 0000 0000
00000010: 0000 0000 0000 0000 0000 0000 0000 0000
00000020: 0000 0000 0000 0000 0000 0000 0000 0000
00000030: 0000 0000 0000 0000 0000 0000 0000 0000
00000040: 0000 0000 0000 0000 0000 0000 0000 0000
00000050: 0000 0000 0000 0000 0000 0000 0000 0000
00000060: 0000 0000 0000 0000 0000 0000 0000 0000
00000070: 0000 0000 0000 0000 0000 0000 0000 0000
00000080: 0000 0000 0000 0000 0000 0000 0000 0000
00000090: 0000 0000 0000 0000 0000 0000 0000 0000
000000a0: 0000 0000 0000 0000 0000 0000 0000 0000
000000b0: 0000 0000 0000 0000 0000 0000 0000 0000
000000c0: 0000 0000 0000 0000 0000 0000 0000 0000
000000d0: 0000 0000 0000 0000 0000 0000 0000 0000
000000e0: 0000 0000 0000 0000 0000 0000 0000 0000
000000f0: 0000 0000 0000 0000 0000 0000 0000 0000
00000100: 0000 0000 0000 0000 0000 0000 0000 0000
00000110: 0000 0000 0000 0000 0000 0000 0000 0000
00000120: 0000 0000 0000 0000 0000 0000 0000 0000
00000130: 0000 0000 0000 0000 0000 0000 0000 0000
00000140: 0000 0000 0000 0000 0000 0000 0000 0000
00000150: 0000 0000 0000 0000 0000 0000 0000 0000
00000160: 0000 0000 0000 0000 0000 0000 0000 0000
00000170: 0000 0000 0000 0000 0000 0000 0000 0000
00000180: 0000 0000 0000 0000 0000 0000 0000 0000
00000190: 224c 1b93 0000 803f 0000 0000 0000 0000
000001a0: 0000 0000 0000 0000 0000 0000 0000 0000
000001b0: 0000 0000 0000 0000 0000 0000 0000 0000
000001c0: 0000 0000 0000 0000 0000 0000 0000 0000
000001d0: 0000 0000 0000 0000 0000 0000 0000 0000
000001e0: 0000 0000 0000 0000 0000 0000 0000 0000
000001f0: 0000 0000 0000 0000 0000 0000 0000 0000
00000200: 0000 0000 0000 0000 0000 0000 0000 0000
00000210: 0000 0000 0000 0000 0000 0000 0000 0000
00000220: 0000 0000 0000 0000 0000 0000 0000 0000
00000230: 0000 0000 0000 0000 0000 0000 0000 0000
00000240: 0000 0000 0000 0000 0000 0000 0000 0000
00000250: 0000 0000 0000 0000 0000 0000 0000 0000
00000260: 0000 0000 0000 0000 0000 0000 0000 0000
00000270: 0000 0000 0000 0000 0000 0000 0000 0000
00000280: 0000 0000 0000 0000 0000 0000 0000 0000
00000290: 0000 0000 0000 0000 0000 0000 0000 0000
000002a0: 0000 0000 0000 0000 0000 0000 0000 0000
000002b0: 0000 0000 0000 0000 0000 0000 0000 0000
000002c0: 0000 0000 0000 0000 0000 0000 0000 0000
000002d0: 0000 0000 0000 0000 0000 0000 0000 0000
000002e0: 0000 0000 0000 0000 0000 0000 0000 0000
000002f0: 0000 0000 0000 0000 0000 0000 0000 0000
00000300: 0000 0000 0000 0000 0000 0000 0000 0000
00000310: 0000 0000 0000 0000 0000 0000 0000 0000
00000320: 96ea 3f95 861f 2e93 0000 803f 0000 0000
00000330: 0000 0000 0000 0000 0000 0000 0000 0000
00000340: 0000 0000 0000 0000 0000 0000 0000 0000
00000350: 0000 0000 0000 0000 0000 0000 0000 0000
00000360: 0000 0000 0000 0000 0000 0000 0000 0000
00000370: 0000 0000 0000 0000 0000 0000 0000 0000
00000380: 0000 0000 0000 0000 0000 0000 0000 0000
00000390: 0000 0000 0000 0000 0000 0000 0000 0000
000003a0: 0000 0000 0000 0000 0000 0000 0000 0000
000003b0: 0000 0000 0000 0000 0000 0000 0000 0000
000003c0: 0000 0000 0000 0000 0000 0000 0000 0000
000003d0: 0000 0000 0000 0000 0000 0000 0000 0000
000003e0: 0000 0000 0000 0000 0000 0000 0000 0000
000003f0: 0000 0000 0000 0000 0000 0000 0000 0000

mean_module.constant f4 [20, 1]
-1.7258572e-10 2.2791533e-09 3.40359e-11 -1.6444882e-09 -9.520305e-10 -3.0895673e-09 -3.598187e-09 0.04713036
0.09498046 0.22600284 1.930901e-11 3.7753565e-09 -8.8570107e-10 2.634092e-09 0.011571899 -4.3444133e-09
3.642143e-11 -0.15834239 -7.371459e-11 5.0842536e-10
00000000: 90c2 3daf 4a9f 1c31 04b1 152e 4904 e2b0
00000010: 98d8 82b0 3e50 54b1 fa43 77b1 c40b 413d
00000020: 1e85 c23d 4a6d 673e 06d8 a92d 63b8 8131
00000030: ac75 73b0 7003 3531 1098 3d3c dd45 95b1
00000040: e22e 202e 8224 22be a019 a2ae 41c1 0b30

covar_module.raw_outputscale f4 [20]
-23.111965 -23.950354 -23.642916 -23.13403 -25.422083 -24.967026 -24.142784 -5.158827
-5.0186915 -25.261806 -24.981855 -22.939226 -24.194876 -24.58326 -2.7142308 -24.599634
-23.965 -3.8754377 -24.680387 -24.974886
00000000: 4ee5 b8c1 539a bfc1 b124 bdc1 7e12 b9c1
00000010: 6d60 cbc1 78bc c7c1 6c24 c1c1 1c15 a5c0
00000020: 1f99 a0c0 2e18 cac1 d7da c7c1 8983 b7c1
00000030: 1b8f c1c1 84aa c4c1 f5b5 2dc0 0dcc c4c1
00000040: 52b8 bfc1 2c07 78c0 6f71 c5c1 91cc c7c1

covar_module.base_kernel.raw_lengthscale f4 [20, 1, 13]
3.2856116 15.949148 17.511583 3.1195707 2.8775537 3.3292313 3.084746 3.8787127
3.565922 4.933662 2.8803263 3.2206464 3.53163 6.396026 10.037114 9.433315
2.879362 3.6226294 2.6901681 1.4864631 4.420777 2.8280401 3.1465745 2.5774374
1.1241803 3.0205655 3.7561255 15.748563 10.605642 2.8731828 1.9406381 2.8552487
3.081531 3.7720034 2.8874586 2.841067 4.0389414 3.1261802 3.3717864 6.018421
10.644258 13.464229 4.97202 4.7505317 4.730046 4.448048 5.1098175 4.2469935
5.041199 4.12141 4.3979425 4.4889092 0.98008144 5.972538 5.959678 0.5535075
0.6311955 0.48568612 0.6652989 0.7763106 0.6327651 0.5422223 0.7167245 0.77721566
0.6504101 2.0641272 11.273486 11.962507 2.023857 1.9801904 1.889852 2.0493107
2.0110981 2.156342 1.8241256 1.5620077 3.197454 1.6911683 4.3378887 9.39545
13.600132 5.5920463 5.4030743 4.880536 4.19626 2.8657544 3.554 3.5701287
5.8926277 3.5608687 3.69623 20.802708 172.02986 123.13313 4.3121085 7.3309965
7.0772314 6.2657022 6.505171 11.386361 7.321677 2.7263873 2.7190404 5.012419
2.9604313 3.8032951 89.75005 26.880093 21.342924 19.095346 25.120731 26.505335
18.209864 24.049496 18.312744 18.853552 20.347034 4.484633 11.81702 13.6900015
2.9244084 2.2721086 2.3471646 2.9861777 3.054033 2.6563323 3.0013533 3.4793084
2.6152208 3.2258337 4.378552 16.571318 16.135061 3.1420813 3.2231827 2.3896604
3.2853737 2.6434157 2.9759958 3.618815 2.419458 2.539685 3.648624 3.4423838
13.098809 13.177492 4.272458 3.0663168 2.4712384 3.208955 4.1058965 3.5048215
3.0524006 3.2955117 2.8641887 2.4213433 0.9324829 7.1399856 8.476834 1.3158371
1.2715923 1.4817766 0.5916551 1.0314415 1.0285451 1.2494367 1.3710315 1.0291508
1.4368976 1.5218077 12.553086 13.034952 0.996521 1.2930868 1.1586546 1.6804911
1.5437945 1.6849958 1.530079 1.0320721 1.2684683 1.0993358 16.37418 -2.4063373
-0.3862531 1.9720157 2.6187716 3.7904925 4.4918184 14.760665 12.01205 22.478878
9.391698 10.400287 -2.2645473 3.5075922 11.186141 11.115433 3.4498732 2.584838
3.4132311 3.1405764 2.0116239 2.6996875 2.379346 2.107217 2.3355489 2.390955
6.265431 13.415374 14.183431 4.483413 4.828622 5.1477904 4.3326244 4.4684057
4.212759 4.0872326 4.366141 4.941235 4.8432384 3.274032 21.8638 16.010473
35.663597 33.512814 41.134193 37.058434 36.573563 40.72152 32.09813 38.65134
36.731045 39.87259 2.3697567 12.570055 13.106297 2.0540354 2.1055622 2.5184288
2.1527808 1.7220616 2.150592 2.3287675 1.9597166 1.8131394 1.7664032 3.286556
14.611304 15.041575 1.5371013 1.202362 1.6433889 1.3451582 1.6580104 1.297692
00000000: 7647 5240 b62f 7f41 b917 8c41 0ca7 4740
00000010: d729 3840 2012 5540 7a6c 4540 d43c 7840
00000020: 1138 6440 8fe0 9d40 4457 3840 121f 4e40
00000030: 3a06 6240 3fac cc40 0598 2041 dcee 1641
00000040: 7847 3840 29d9 6740 b72b 2c40 6c44 be3f
00000050: 0177 8d40 9cfe 3440 7a61 4940 bcf4 2440
00000060: 24e5 8f3f f250 4140 5c64 7040 1dfa 7b41
00000070: b6b0 2941 3ae2 3740 d466 f83f 65bc 3640
00000080: ce37 4540 8168 7140 1fcc 3840 0bd4 3540
00000090: 023f 8140 5613 4840 59cb 5740 e896 c040
000000a0: e14e 2a41 7b6d 5741 ca1a 9f40 5b04 9840
000000b0: 895c 9740 6956 8e40 a083 a340 5fe7 8740
000000c0: 8151 a140 97e2 8340 f2bb 8c40 25a5 8f40
000000d0: 9ee6 7a3f 081f bf40 afb5 be40 abb2 0d3f
000000e0: 0796 213f daab f83e 0751 2a3f 4bbc 463f
000000f0: e5fc 213f 15cf 0a3f 427b 373f 9bf7 463f
00000100: 4781 263f a91a 0440 3360 3441 6e66 3f41
00000110: e086 0140 e176 fd3f ace6 f13f e827 0340
00000120: d5b5 0040 8201 0a40 f37c e93f deef c73f
00000130: 16a3 4c40 3478 d83f fccf 8a40 c353 1641
00000140: 249a 5941 0bf2 b240 fce5 ac40 5a2d 9c40
00000150: c347 8640 8568 3740 bc74 6340 fd7c 6440
00000160: 6890 bc40 46e5 6340 088f 6c40 f26b a641
00000170: a507 2c43 2a44 f642 cbfc 8940 8697 ea40
00000180: ae78 e240 a280 c840 5c2a d040 892e 3641
00000190: 2e4b ea40 217d 2e40 c204 2e40 bd65 a040
000001a0: b577 3d40 3069 7340 0780 b342 6e0a d741
000001b0: 4fbe aa41 45c3 9841 42f7 c841 ed0a d441
000001c0: cdad 9141 5e65 c041 8080 9241 13d4 9641
000001d0: bac6 a241 1d82 8f40 8412 3d41 3f0a 5b41
000001e0: 8229 3b40 3a6a 1140 f237 1640 891d 3f40
000001f0: 4775 4340 5901 2a40 2c16 4040 fdac 5e40
00000200: c75f 2740 0f74 4e40 191d 8c40 0f92 8441
00000210: 9b14 8141 dc17 4940 a048 4e40 32f0 1840
00000220: 9043 5240 b92d 2940 b776 3e40 aa9a 6740
00000230: 66d8 1a40 338a 2240 0e83 6940 0450 5c40
00000240: b994 5141 02d7 5241 fab7 8840 893e 4440
00000250: c528 1e40 855f 4d40 8163 8340 ff4e 6040
00000260: 885a 4340 aae9 5240 de4e 3740 4af7 1a40
00000270: 33b7 6e3f c37a e440 1da1 0741 5a6d a83f
00000280: 89c3 a23f dbaa bd3f b576 173f 4606 843f
00000290: 5ea7 833f 8bed 9f3f f67d af3f 37bb 833f
000002a0: 43ec b73f 98ca c23f 71d9 4841 2a8f 5041
000002b0: 001c 7f3f de83 a53f cb4e 943f 551a d73f
000002c0: 0f9b c53f f1ad d73f a1d9 c33f f01a 843f
000002d0: 2b5d a23f 09b7 8c3f 52fe 8241 6e01 1ac0
000002e0: f7c2 c5be 036b fc3f f499 2740 6e97 7240
000002f0: fabc 8f40 af2b 6c41 5b31 4041 bed4 b341
00000300: 6544 1641 9367 2641 58ee 10c0 647c 6040
00000310: 6ffa 3241 d0d8 3141 b9ca 5c40 fc6d 2540
00000320: 6172 5a40 34ff 4840 72be 0040 aec7 2c40
00000330: 3447 1840 a5dc 0640 a279 1540 6805 1940
00000340: 697e c840 5fa5 5641 55ef 6241 1f78 8f40
00000350: 1284 9a40 b3ba a440 dca4 8a40 2efd 8e40
00000360: ecce 8640 9cca 8240 6db7 8b40 991e 9e40
00000370: cffb 9a40 be89 5140 10e9 ae41 7315 8041
00000380: 86a7 0e42 1f0d 0642 6a89 2442 d63b 1442
00000390: 544b 1242 d6e2 2242 7c64 0042 f99a 1a42
000003a0: 97ec 1242 887d 1f42 18aa 1740 f21e 4941
000003b0: 64b3 5141 5175 0340 88c1 0640 f02d 2140
000003c0: 29c7 0940 846c dc3f 4da3 0940 870a 1540
000003d0: fed7 fa3f f414 e83f 8019 e23f ef56 5240
000003e0: e7c7 6941 4baa 7041 bcbf c43f ffe6 993f
000003f0: 915a d23f 252e ac3f af39 d43f c51a a63f
