state/mogp_model_lmc_2_state.pth (torch, 919806 bytes, 7 tensors)

variational_strategy.lmc_coefficients f4 [20, 20]
1.1999871e-05 -0.00023211315 -0.001223317 -0.00119115 0.0027509904 0.009409573 0.017664524 0.025978629
0.03359139 0.040505845 0.046756048 0.05220537 0.056622103 0.05956949 0.061399627 0.062293716
0.06234283 0.061866555 0.06119171 0.060424607 -1.7402795e-15 -5.0249632e-15 -1.1401937e-14 2.3029811e-14
3.8295444e-13 1.5352652e-12 9.609889e-13 -2.762303e-12 3.125606e-13 -3.0349718e-12 -4.920251e-12 -1.4297392e-12
-1.6505395e-12 3.6894767e-12 4.750237e-12 3.861855e-12 2.457922e-12 1.6597467e-12 -7.952587e-13 -5.6263965e-12
-2.265536e-15 1.3458127e-14 -3.0824708e-14 -4.954427e-14 -5.14956e-14 -1.7395677e-13 -1.5637414e-14 8.951744e-13
1.4878607e-12 3.303572e-12 -1.9501254e-12 -5.4495713e-12 -5.3312315e-12 4.4787186e-13 2.3308094e-12 2.9599801e-12
1.4947705e-12 4.3697728e-13 9.286772e-13 1.528356e-13 -9.661111e-06 0.014557477 0.037310928 0.010628227
-0.021646384 -0.042996965 -0.05254598 -0.051317953 -0.041693762 -0.025877506 -0.005803229 0.016946629
0.040865466 0.06501375 0.08873059 0.111555874 0.13315634 0.15322515 0.17172295 0.18850274
3.1865458e-13 6.4386257e-13 -2.7592984e-12 -1.0439821e-10 -5.244358e-10 1.763672e-09 1.1112001e-09 -1.2327505e-09
-1.1868233e-09 -8.1986423e-10 -2.4525798e-10 9.618892e-11 1.8016527e-10 3.1973593e-10 4.991526e-10 4.2647763e-10
1.0090821e-10 -4.5995013e-11 1.09694455e-10 -7.781469e-11 -0.0001760973 0.013009334 0.017522054 -0.01972782
-0.038871422 -0.030553605 -0.00969675 0.01432869 0.03635711 0.05309571 0.06311244 0.06662751
0.064833745 0.058079503 0.047150668 0.032914244 0.01615712 -0.0025376882 -0.022391114 -0.04282873
-1.1526431e-05 -0.008258086 -0.010159393 0.010660404 0.024279166 0.03161738 0.0381135 0.044041764
0.05018818 0.05563357 0.06057239 0.06525649 0.069432504 0.07322461 0.07660088 0.079344034
0.08146276 0.083098255 0.08435918 0.08521388 -8.62701e-05 -0.012153641 0.03080241 0.062392097
0.08024138 0.08708675 0.081876226 0.06861173 0.049521342 0.027395077 0.0050067888 -0.01569186
-0.03361717 -0.0486845 -0.060786016 -0.070077725 -0.07683932 -0.08151499 -0.0844076 -0.08551371
0.00041795865 0.045682687 0.15433714 0.22140537 0.2475768 0.2464311 0.22871204 0.20223984
0.17169043 0.14027874 0.109756604 0.08086088 0.053807586 0.028788406 0.006028023 -0.014582419
-0.033255793 -0.05016624 -0.06529244 -0.07891724 -9.666435e-06 0.060993753 0.11370896 0.09666919
0.047308512 -0.01116461 -0.065761834 -0.11115195 -0.14564492 -0.16973059 -0.18463615 -0.19206518
-0.19409595 -0.19192702 -0.18688673 -0.18007618 -0.1720101 -0.16320468 -0.1541611 -0.14513087
-6.205094e-16 1.6934511e-15 -1.8695008e-14 -2.6798034e-14 -5.0569866e-14 -1.7586984e-13 -3.486578e-13 -9.569224e-13
2.6520737e-12 4.976742e-12 -2.5155871e-12 -4.034348e-12 -2.9576445e-12 5.544498e-13 1.1918066e-12 1.1878581e-12
9.506319e-13 8.921156e-13 5.912435e-13 -2.5163803e-12 -5.7885478e-15 2.244604e-14 -3.9127806e-14 -1.8100101e-14
-8.375505e-15 -9.864387e-15 4.0945256e-13 1.5720193e-12 2.273447e-12 4.5423765e-12 -5.4198083e-12 -1.19761406e-11
-1.249816e-11 2.8022656e-12 1.02495104e-11 1.3758603e-11 2.836957e-12 -3.3926703e-12 -5.4471613e-13 -4.5089233e-13
-8.633857e-14 -1.279686e-13 5.915077e-13 7.7779347e-13 7.741023e-13 9.329378e-13 1.4371066e-12 1.1031282e-12
1.6977971e-12 9.894602e-13 -2.7787115e-12 -1.2771605e-11 -2.8044074e-11 -9.7419135e-11 -1.2258494e-10 1.1906798e-10
00000000: 0e53 4937 6663 73b9 b557 a0ba 5d20 9cba
00000010: f649 343b 9c2a 1a3c 31b5 903c 22d1 d43c
00000020: 2097 093d 75e9 253d 4583 3f3d 4cd5 553d
00000030: 94ec 673d 23ff 733d 2d7e 7b3d b227 7f3d
00000040: 325b 7f3d c967 7d3d 29a4 7a3d cb7f 773d
00000050: fbcc faa6 1b0b b5a7 2766 4da8 216f cf28
00000060: 8d95 d72a c211 d82b 463f 872b 3a61 42ac
00000070: bbf4 af2a 3191 55ac ae1d adac c937 c9ab
00000080: f44a e8ab dacf 812c 5522 a72c 7fe0 872c
00000090: fdf5 2c2c ad96 e92b 6ed8 5fab 13f6 c5ac
000000a0: c33f 23a7 a870 7228 78d2 0aa9 a820 5fa9
000000b0: 62ea 67a9 a0db 43aa 6cd9 8ca8 1df8 7b2b
000000c0: d565 d12b dd77 682c 563a 09ac 60bd bfac
000000d0: 7793 bbac 2321 fc2a 2104 242c 434a 502c
000000e0: c85e d22b 10ff f52a 1fb3 822b dd13 2c2a
000000f0: 2816 22b7 7c82 6e3c 58d3 183d 0422 2e3c
00000100: c253 b1bc 961d 30bd 743a 57bd c632 52bd
00000110: 14c7 2abd 10fd d3bc 0329 bebb a8d3 8a3c
00000120: 8c62 273d ee25 853d 62b8 b53d 6877 e43d
00000130: 235a 083e 0ee7 1c3e 24d8 2f3e dd06 413e
00000140: f762 b32a 303b 352b 1a2b 42ac f892 e5ae
00000150: e327 10b0 b165 f230 e1b8 9830 8d6d a9b0
00000160: a21d a3b0 d15c 61b0 fed4 86af 8c85 d32e
00000170: 0418 462f d5c6 af2f be34 0930 6475 ea2f
00000180: 46e6 dd2e c849 4aae 7d38 f12e c71d abae
00000190: c2a6 38b9 1a25 553c 698a 8f3c 3d9c a1bc
000001a0: a437 1fbd 8e4b fabc 1edf 1ebc e2c2 6a3c
000001b0: 31eb 143d e37a 593d 1841 813d 0174 883d
000001c0: 8ec7 843d c6e4 6d3d 0f21 413d 16d1 063d
000001d0: f05b 843c 584f 26bb 926d b7bc 2e6d 2fbd
000001e0: a561 41b7 ec4c 07bc 9573 26bc faa8 2e3c
000001f0: 1ae5 c63c 3a81 013d e71c 1c3d 2365 343d
00000200: 1f92 4d3d 07e0 633d c11a 783d 32a5 853d
00000210: a132 8e3d c9f6 953d ece0 9c3d 207f a23d
00000220: f3d5 a63d 6b2f aa3d 81c4 ac3d 9d84 ae3d
00000230: e8eb b4b8 1120 47bc 5655 fc3c db8e 7f3d
00000240: 9855 a43d 8a5a b23d b9ae a73d 4f84 8c3d
00000250: e4d6 4a3d a46b e03c fd0f a43b 378c 80bc
00000260: 28b2 09bd 6669 47bd c2fa 78bd e984 8fbd
00000270: ef5d 9dbd 55f1 a6bd e4dd acbd d021 afbd
00000280: 7621 db39 c51d 3b3d 8e0a 1e3e 17b8 623e
00000290: c684 7d3e 6f58 7c3e 7d33 6a3e f617 4f3e
000002a0: 9ecf 2f3e 3ba5 0f3e 12c8 e03d 649a a53d
000002b0: 5865 5c3d aad5 eb3c b986 c53b 19eb 6ebc
000002c0: 3a37 08bd 1e7b 4dbd 0bb8 85bd 5d9f a1bd
000002d0: 062d 22b7 96d4 793d 3ee0 e83d 7ffa c53d
000002e0: 92c6 413d c5eb 36bc 24ae 86bd a2a3 e3bd
000002f0: f123 15be dbcd 2dbe 4211 3dbe bcac 44be
00000300: 17c1 46be 8488 44be 3c5f 3fbe e465 38be
00000310: 6a23 30be 211f 27be 68dc 1dbe 309d 14be
00000320: 83d9 32a6 510d f426 c163 a8a8 0f60 f1a8
00000330: 16bf 63a9 0803 46aa e246 c4aa c3ac 86ab
00000340: 839f 3a2c 821a af2c ca04 31ac 2df2 8dac
00000350: 3020 50ac 5210 1c2b 5cbb a72b 192d a72b
00000360: 20ca 852b b41b 7b2b 966b 262b 1413 31ac
00000370: ee8d d0a7 0b2d ca28 4a37 30a9 fe07 a3a8
00000380: 33e1 16a8 75b3 31a8 5580 e62a f73d dd2b
00000390: c8fa 1f2c 17d2 9f2c 4bb1 beac beaf 52ad
000003a0: b5de 5bad 2131 452c b14f 342d 3d0b 722d
000003b0: 13a2 472c eabc 6eac ef52 19ab 6fd4 fdaa
000003c0: cc6a c2a9 7014 10aa 9f7e 262b eded 5a2b
000003d0: f3e3 592b a04c 832b 3941 ca2b 6240 9b2b
000003e0: 96f1 ee2b 1041 8b2b d188 43ac 32ae 60ad
000003f0: a4ad f6ad 193a d6ae 98c8 06af a8ea 022f

variational_strategy.base_variational_strategy.inducing_points f4 [20, 100, 13]
-1.4134628 -0.6657747 -0.074483596 -1.2556996 -1.2557082 1.2557317 -1.2557713 -1.2557371
-1.2558272 -1.2558116 -1.2558347 -1.2557815 1.2558738 -0.13685995 0.9724086 -0.5933877
-0.27649036 -0.27649915 0.2765218 -0.27656892 -0.27656004 -0.2767325 -0.27664295 -0.27665806
-0.2766369 0.27669135 -1.1426653 -1.0608252 0.10490055 -1.0867978 -1.0868062 1.0868261
-1.0868684 -1.0868456 -1.0869437 -1.0869106 -1.0869322 -1.0868862 1.0869879 0.14165658
1.3570167 -0.18752335 -3.0304984e-05 -3.8150978e-05 5.9712125e-05 -0.00010958667 -0.00011106693 -0.0002981911
-0.00018783059 -0.00020110454 -0.00019099099 0.00023050059 -0.73367286 0.9035919 0.9617891 -0.79299235
-0.7930024 0.7930201 -0.793065 -0.7930638 -0.79303783 -0.7930265 -0.7931642 -0.7930291
0.7932857 1.06915 -1.481015 0.79064745 1.078767 1.0787588 -1.0787387 1.0786846
1.078642 1.0783782 1.0785698 1.0785674 1.0785412 -1.0785416 -0.6246153 -0.98667926
1.0531803 -0.7059464 -0.7059568 0.70597756 -0.70602554 -0.7060148 -0.70607823 -0.70605075
-0.7061187 -0.70603734 0.706196 0.12566614 0.62268746 0.15976113 -0.017296648 -0.017304419
0.017325489 -0.017373813 -0.017376194 -0.017562136 -0.017453656 -0.017466212 -0.017453847 0.017496333
-0.9804342 -0.7152619 1.5111398 -0.975837 -0.9758352 0.9758422 -0.9758592 -0.9758706
-0.975893 -0.9758839 -0.9758905 -0.97586566 0.97590816 -0.29153466 -1.0399319 -0.8279131
-0.42063886 -0.4206486 0.4206714 -0.42072117 -0.42070293 -0.42087242 -0.42079407 -0.42081004
-0.42078224 0.42084745 -0.70185083 1.2385584 0.79590917 -0.76795506 -0.76796407 0.7679862
-0.7680297 -0.7680044 -0.76813996 -0.7680891 -0.7681081 -0.76807004 0.76814467 0.018579697
1.6650304 0.73920596 -0.12545113 -0.1254603 0.1254823 -0.12553151 -0.12552702 -0.12570858
-0.12560768 -0.1256216 -0.12560555 0.1256541 0.25748807 1.2375045 1.5413547 0.122505516
0.12317227 -0.122898206 0.12337371 0.12073163 0.12874162 0.12099852 0.1225832 0.12230955
-0.12338245 -26.27982 2.8718395 1.2849792 -22.806993 -21.60278 -19.860014 18.760153
-23.812542 21.470133 -20.325357 -15.948345 -21.291985 -21.375177 -0.9667432 -0.40989393
-0.72681874 -0.9658651 -0.9661288 0.9664599 -0.9671342 -0.9661554 -0.96819997 -0.96784395
-0.96814096 -0.9676321 0.9685675 24.829079 -0.47353512 1.5189853 -19.181866 -17.238281
-18.256872 16.971277 -23.097458 -24.012781 17.198545 -22.227755 -22.253849 22.3071
0.2456631 0.31475857 -1.1923572 0.107366525 0.107357 -0.10733289 0.10728183 0.10728097
0.10707464 0.10719444 0.10718107 0.1071901 -0.107150145 1.1334233 -0.49390814 -0.57801116
1.1646863 1.1646886 -1.1646837 1.1646566 1.1645706 1.1643945 1.1645745 1.1645789
1.164531 -1.1645777 0.4590557 0.7185454 -0.004849097 0.34104964 0.34104225 -0.34102395
0.34097922 0.34095627 0.34077752 0.34088576 0.34088537 0.340897 -0.34087905 0.86012334
2.1909206 -5.306501 1.3986549 0.44287282 2.043748 0.72084016 0.49675617 2.9437113
00000000: 59ec b4bf 3670 2abf db8a 98bd c4ba a0bf
00000010: 0cbb a0bf d1bb a03f 1dbd a0bf febb a0bf
00000020: f2be a0bf 6fbe a0bf 31bf a0bf 73bd a0bf
00000030: 79c0 a03f 0425 0cbe c5ef 783f 42e8 17bf
00000040: 2590 8dbe 4c91 8dbe 4494 8d3e 719a 8dbe
00000050: 4799 8dbe e2af 8dbe 25a4 8dbe 20a6 8dbe
00000060: 5aa3 8dbe 7daa 8d3e db42 92bf 1fc9 87bf
00000070: 19d6 d63d 311c 8bbf 771c 8bbf 1e1d 8b3f
00000080: 811e 8bbf c21d 8bbf f920 8bbf e31f 8bbf
00000090: 9820 8bbf 161f 8bbf 6b22 8b3f 6c0e 113e
000000a0: b9b2 ad3f 1f06 40be 7537 feb7 4d04 20b8
000000b0: 6873 7a38 e5d1 e5b8 9bec e8b8 8856 9cb9
000000c0: 64f4 44b9 97df 52b9 c144 48b9 88b2 7139
000000d0: fcd1 3bbf cc51 673f cf37 763f 8c01 4bbf
000000e0: 3502 4bbf 5e03 4b3f 4f06 4bbf 3b06 4bbf
000000f0: 8704 4bbf c903 4bbf cf0c 4bbf f503 4bbf
00000100: c614 4b3f e8d9 883f e691 bdbf df67 4a3f
00000110: 0915 8a3f c514 8a3f 1c14 8abf 5612 8a3f
00000120: f110 8a3f 4c08 8a3f 930e 8a3f 7f0e 8a3f
00000130: a30d 8a3f a70d 8abf cae6 1fbf 0397 7cbf
00000140: 9dce 863f e7b8 34bf 96b9 34bf f2ba 343f
00000150: 17be 34bf 63bd 34bf 8bc1 34bf bebf 34bf
00000160: 32c4 34bf ddbe 34bf 43c9 343f a0ae 003e
00000170: 7268 1f3f 6c98 233e b3b1 8dbc ffc1 8dbc
00000180: 2fee 8d3c 8753 8ebc 8558 8ebc 78de 8fbc
00000190: f8fa 8ebc 4d15 8fbc 5ffb 8ebc 7854 8f3c
000001a0: bcfd 7abf 671b 37bf 076d c13f 74d0 79bf
000001b0: 56d0 79bf cbd0 793f e9d1 79bf a8d2 79bf
000001c0: 20d4 79bf 87d3 79bf f6d3 79bf 55d2 79bf
000001d0: 1ed5 793f 0844 95be 7d1c 85bf 1df2 53bf
000001e0: fa5d d7be 415f d7be 3e62 d73e c468 d7be
000001f0: 6066 d7be 977c d7be 5272 d7be 6a74 d7be
00000200: c570 d7be 5179 d73e 7fac 33bf 1589 9e3f
00000210: b4c0 4b3f b498 44bf 4b99 44bf be9a 443f
00000220: 989d 44bf f09b 44bf d2a4 44bf 7da1 44bf
00000230: bca2 44bf 3da0 44bf 21a5 443f 7334 983c
00000240: b71f d53f 9a3c 3d3f 4376 00be aa78 00be
00000250: 6f7e 003e 558b 00be 288a 00be c0b9 00be
00000260: 4d9f 00be f3a2 00be be9e 00be 78ab 003e
00000270: 7ad5 833e 8c66 9e3f 1c4b c53f 2ce4 fa3d
00000280: be41 fc3d 0eb2 fbbd 5bab fc3d 2542 f73d
00000290: d8d4 033e 12ce f73d e70c fb3d 6e7d fa3d
000002a0: f0af fcbd 123d d2c1 38cc 3740 337a a43f
000002b0: b974 b6c1 7ed2 acc1 4fe1 9ec1 cb14 9641
000002c0: 1680 bec1 d5c2 ab41 559a a2c1 6c2c 7fc1
000002d0: fc55 aac1 5d00 abc1 7b7c 77bf 9edd d1be
000002e0: cb10 3abf ef42 77bf 3854 77bf ea69 773f
000002f0: 1b96 77bf f655 77bf f4db 77bf 9fc4 77bf
00000300: 16d8 77bf bdb6 77bf 0af4 773f f4a1 c641
00000310: 3273 f2be 1c6e c23f 7674 99c1 00e8 89c1
00000320: 130e 92c1 2dc5 8741 98c7 b8c1 2d1a c0c1
00000330: 9f96 8941 71d2 b1c1 e207 b2c1 f174 b241
00000340: 1c8f 7b3e 0928 a13e 299f 98bf fbe2 db3d
00000350: fddd db3d 59d1 dbbd 93b6 db3d 20b6 db3d
00000360: f349 db3d c288 db3d c081 db3d 7c86 db3d
00000370: 8971 dbbd 0414 913f 87e1 fcbe 8af8 13bf
00000380: 7114 953f 8414 953f 5b14 95bf 7813 953f
00000390: a610 953f e10a 953f c710 953f ec10 953f
000003a0: 5a0f 953f e210 95bf 5909 eb3e 97f2 373f
000003b0: 2de5 9ebb 0f9e ae3e 179d ae3e b19a aebe
000003c0: d494 ae3e d291 ae3e 647a ae3e 9488 ae3e
000003d0: 8788 ae3e 0d8a ae3e b387 aebe 0b31 5c3f
000003e0: 0b38 0c40 dbce a9c0 2007 b33f 3ac0 e23e
000003f0: c4cc 0240 fb88 383f d356 fe3e c465 3c40

variational_strategy.base_variational_strategy._variational_distribution.variational_mean f4 [20, 100]
-0.36416408 1.6640054 0.8727169 -5.857347 -1.1093202 -0.60378796 -1.5355241 -4.2168097
-1.5392312 6.144669 -1.5841693 -5.0802674 -0.47689813 -1.116e-41 1.0548698 -1.116e-41
1.6924351 1.4950039 -1.4226731 -8.932741e-31 3.3862634 -1.9099929 2.1813962 -0.10526014
0.566865 -0.5342238 -1.1305789 0.018987319 -1.3485017 -1.61126e-40 -3.0221272 0.07961984
-6.7420263 1.0743647 -2.9955773 -0.46563038 -0.85282886 0.35906714 -2.035944 -3.4247603
7.413926 -7.8352517e-19 1.116e-41 1.116e-41 -1.1189011 2.3165064 -4.7512174 -4.9146395
1.5790882 -1.116e-41 1.1929954 3.435398 -1.4118607 5.057438 7.471111 -4.2344384
5.900491 4.972943 -1.2187253 -0.78240794 4.852998 -4.6785464 -2.1141667 -1.4947807
-1.174509 4.115422 -5.554325e-39 5.7480307 1.3928494 2.8039439 -2.56547e-28 4.600221
1.9126566e-30 1.2661589 -1.6060133 0.024478743 -3.9543364 5.1411147 -0.19446439 0.34496456
0.66931945 -1.205042 -7.015144 -0.43009266 -1.2151981e-36 -1.9003565e-37 -0.88521415 4.5157194
5.052252 -8.844404 -3.4323921 7.7644033 3.38949 3.151034 -2.612756 -5.595995
4.3526573 -3.4596536 0.11882753 -2.4272923 -4.40708e-19 -6.3417704e-19 -1.3130127e-19 7.218458e-20
4.9594053e-20 1.5725555e-20 -1.9103162e-19 1.0260799e-19 2.9697074e-22 9.01276e-20 4.8847148e-20 -9.154932e-20
2.5051935e-19 5.743786e-25 -1.6556101e-31 -6.8889437e-19 -1.3774518e-33 1.6707156e-33 -4.6404693e-20 7.4581604e-35
3.3286867e-33 5.604476e-31 -3.5149515e-30 1.1705454e-33 -6.113539e-23 -3.0369336e-31 -3.7280468e-34 -1.436879e-31
6.0313123e-27 -5.254196e-32 8.623192e-20 9.92958e-31 -2.2640837e-30 5.5973167e-20 -1.1871711e-18 -9.9555695e-27
-4.8031166e-32 1.2782915e-29 1.2979012e-32 1.6176488e-22 6.777025e-22 -1.0765671e-32 1.3572818e-31 -1.0889842e-34
4.1692684e-23 -2.8921847e-26 -2.1007308e-30 -4.914643e-31 -3.340131e-30 -2.0944135e-30 3.8199978e-28 3.790632e-30
3.030658e-32 9.536068e-32 -1.3324176e-30 -1.8149766e-32 5.0452153e-34 -5.1353393e-29 8.529342e-28 5.737489e-28
5.3403886e-25 -5.3031026e-30 7.379133e-28 -9.988568e-32 2.3685254e-19 -1.344446e-29 -1.1736319e-28 -4.006882e-30
4.1514768e-29 -9.941462e-35 -5.101179e-34 1.0531726e-25 -3.5838441e-31 -2.3887232e-31 -2.477791e-26 -3.3500884e-31
-2.038191e-31 -3.4788316e-31 -4.224162e-31 -2.827892e-32 -7.075171e-29 -3.9034827e-30 -1.3756161e-30 3.1109347e-31
2.4156247e-29 -3.3354434e-31 1.4741709e-29 4.316433e-28 -4.5994196e-32 -1.2544073e-29 -1.9460794e-30 -9.1281715e-32
4.8533505e-31 -6.0006523e-31 -8.371387e-28 2.404175e-31 -1.9498393e-31 6.099939e-32 5.962175e-30 9.741766e-30
-7.363502e-20 1.5581531e-24 -4.734716e-19 -1.5442639e-19 -1.2805251e-19 -4.6200415e-19 -6.7372863e-19 9.997463e-26
4.9475714e-25 1.0908565e-25 2.05183e-25 1.36116e-25 -6.885814e-20 2.4191915e-19 3.4470512e-25 2.3857469e-25
1.7229974e-25 -1.220588e-25 -3.1853217e-27 3.953753e-26 -2.6694156e-25 -3.2282999e-25 5.787467e-26 -1.5141257e-25
2.1149285e-26 1.2621815e-25 5.5681264e-25 2.928284e-25 4.410436e-25 1.0847706e-26 -4.734911e-25 -6.7567785e-25
-9.4591116e-26 -1.1631428e-24 1.2919413e-24 -1.3851105e-24 4.2360564e-25 -3.332246e-19 -1.8752938e-25 1.8153505e-25
-2.7431164e-25 -8.690751e-25 -2.3603142e-26 6.191374e-25 1.1358025e-25 4.192308e-25 -1.0168354e-23 1.2704197e-25
2.5074484e-25 6.313219e-26 3.1212085e-25 8.4877055e-24 -5.561928e-26 3.076621e-25 -1.3831754e-24 9.737451e-26
00000000: b773 babe 21fe d43f 606a 5f3f 636f bbc0
00000010: 34fe 8dbf d991 1abf 0e8c c4bf 1bf0 86c0
00000020: 8705 c5bf 21a1 c440 0fc6 cabf 8d91 a2c0
00000030: fe2b f4be 1c1f 0080 f905 873f 1c1f 0080
00000040: b7a1 d83f 4a5c bf3f 271a b6bf 28f1 908d
00000050: 8ab8 5840 a67a f4bf ff9b 0b40 a192 d7bd
00000060: 111e 113f e4c2 08bf cfb6 90bf 4b8b 9b3c
00000070: b49b acbf 27c1 0180 886a 41c0 ba0f a33d
00000080: aebe d7c0 c884 893f 8ab7 3fc0 1b67 eebe
00000090: fe52 5abf a6d7 b73e e84c 02c0 462f 5bc0
000000a0: e23e ed40 7d41 67a1 1c1f 0000 1c1f 0000
000000b0: 2738 8fbf a441 1440 f909 98c0 ba44 9dc0
000000c0: 901f ca3f 1c1f 0080 13b4 983f 90dd 5b40
000000d0: dab7 b4bf 88d6 a140 5713 ef40 8580 87c0
000000e0: d3d0 bc40 5922 9f40 31ff 9bbf e34b 48bf
000000f0: c24b 9b40 a7b6 95c0 824e 07c0 f954 bfbf
00000100: 5056 96bf 89b1 8340 337b 3c80 deef b740
00000110: e448 b23f d173 3340 219b a291 0335 9340
00000120: 532c 1b0e 7f11 a23f d891 cdbf a587 c83c
00000130: d913 7dc0 0384 a440 ac21 47be 329f b03e
00000140: 8558 2b3f d13e 9abf 0f7c e0c0 1b35 dcbe
00000150: 58c1 ce83 e154 8182 659d 62bf c680 9040
00000160: 0cac a140 ae82 0dc1 50ac 5bc0 fe75 f840
00000170: 67ed 5840 8baa 4940 6537 27c0 6412 b3c0
00000180: f848 8b40 f76a 5dc0 d95b f33d c258 1bc0
00000190: f412 02a1 102d 3ba1 6003 1ba0 e770 aa1f
000001a0: 8833 6a1f 0f86 941e c487 61a0 b946 f21f
000001b0: ff81 b31b cbce d41f 94ac 661f 2b2a d89f
000001c0: 6ae1 9320 f6c2 3117 15e9 568c 6353 4ba1
000001d0: 52de e488 31cc 0a09 d523 5b9f 9c45 c606
000001e0: ab44 8a09 2ae0 350d 5895 8e8e 7f7d c208
000001f0: f9d0 939a b71b c58c 6ec5 f787 7f84 3a8c
00000200: c6ec ee13 1f68 888b ff9b cb1f dd1d a10d
00000210: 2eaf 378e b429 841f 0e32 afa1 bc30 4594
00000220: 5f64 798b 58a2 810f 22c8 860a ce8f 431b
00000230: b1d2 4c1c 2098 5f8a 6d2f 300c 36c0 1087
00000240: 0b9d 491a cc36 0f95 796e 2a8e 427d 1f8d
00000250: e77d 878e 44eb 298e 021f f211 2cc4 990e
00000260: 5b5c 1d0b 0b92 f70b 7632 d88d 5b7a bc8a
00000270: f2a7 2708 4232 8290 1f27 8712 0ad4 3512
00000280: eb46 2517 911e d78e a4da 6912 b6a8 018c
00000290: 25d0 8b20 d057 888f 88c6 1491 d789 a28e
000002a0: 4081 5210 0b25 0487 0884 2988 5f60 0216
000002b0: d39a e88c 7909 9b8c 7763 f594 e46e d98c
000002c0: 4249 848c 01ca e18c f714 098d 22d5 128b
000002d0: 7c60 b390 1558 9e8e db34 df8d 45e9 c90c
000002e0: 34f9 f40f 8f7b d88c aa7f 950f 11cb 0812
000002f0: c6d0 6e8b 8d6c 7e8f 7de2 1d8e 1bfb ec8b
00000300: 0f80 1d0d 78bb 428d 61a6 8492 350a 9c0c
00000310: 861a 7d8c 0c5d 9e0b c4da f10e 2496 450f
00000320: a3dd ad9f ce1c f117 81be 0ba1 8350 36a0
00000330: 7f2d 17a0 0c5c 08a1 7fd9 46a1 7386 f715
00000340: b31e 1917 9f0a 0716 1701 7e16 e280 2816
00000350: 3196 a29f cacd 8e20 b55c d516 abab 9316
00000360: f84b 5516 fa19 1796 005e 7c93 c6c7 4315
00000370: 943a a596 74d2 c796 6e4a 8f15 8f70 3b96
00000380: cf73 d114 2140 1c16 3e53 2c17 8340 b516
00000390: 137f 0817 67dc 5614 d489 1297 b71c 5197
000003a0: 3e32 ea95 d5fc b397 11eb c717 e155 d697
000003b0: 7f19 0317 7ab3 c4a0 6f26 6896 c1ba 6016
000003c0: 6aca a996 9d7b 8697 13c1 e994 1e9d 3f17
000003d0: 059b 0c16 e3be 0117 40af 4499 3545 1d16
000003e0: 1b34 9b16 c74e 9c15 8631 c116 152d 2419
000003f0: e8b4 8995 016f be16 3909 d697 6e16 f115

variational_strategy.base_variational_strategy._variational_distribution.chol_variational_covar f4 [20, 100, 100]
0.5862898 0.0 0.0 0.0 0.0 0.0 0.0 0.0
0.0 0.0 0.0 0.0 0.0 0.0 0.0 0.0
0.0 0.0 0.0 0.0 0.0 0.0 0.0 0.0
0.0 0.0 0.0 0.0 0.0 0.0 0.0 0.0
0.0 0.0 0.0 0.0 0.0 0.0 0.0 0.0
0.0 0.0 0.0 0.0 0.0 0.0 0.0 0.0
0.0 0.0 0.0 0.0 0.0 0.0 0.0 0.0
0.0 0.0 0.0 0.0 0.0 0.0 0.0 0.0
0.0 0.0 0.0 0.0 0.0 0.0 0.0 0.0
0.0 0.0 0.0 0.0 0.0 0.0 0.0 0.0
0.0 0.0 0.0 0.0 0.0 0.0 0.0 0.0
0.0 0.0 0.0 0.0 0.0 0.0 0.0 0.0
0.0 0.0 0.0 0.0 3.6183257e-05 0.6411023 0.0 0.0
0.0 0.0 0.0 0.0 0.0 0.0 0.0 0.0
0.0 0.0 0.0 0.0 0.0 0.0 0.0 0.0
0.0 0.0 0.0 0.0 0.0 0.0 0.0 0.0
0.0 0.0 0.0 0.0 0.0 0.0 0.0 0.0
0.0 0.0 0.0 0.0 0.0 0.0 0.0 0.0
0.0 0.0 0.0 0.0 0.0 0.0 0.0 0.0
0.0 0.0 0.0 0.0 0.0 0.0 0.0 0.0
0.0 0.0 0.0 0.0 0.0 0.0 0.0 0.0
0.0 0.0 0.0 0.0 0.0 0.0 0.0 0.0
0.0 0.0 0.0 0.0 0.0 0.0 0.0 0.0
0.0 0.0 0.0 0.0 0.0 0.0 0.0 0.0
0.0 0.0 0.0 0.0 0.0 0.0 0.0 0.0
-0.049538463 -1.0800715e-06 0.5588059 0.0 0.0 0.0 0.0 0.0
0.0 0.0 0.0 0.0 0.0 0.0 0.0 0.0
0.0 0.0 0.0 0.0 0.0 0.0 0.0 0.0
0.0 0.0 0.0 0.0 0.0 0.0 0.0 0.0
0.0 0.0 0.0 0.0 0.0 0.0 0.0 0.0
0.0 0.0 0.0 0.0 0.0 0.0 0.0 0.0
0.0 0.0 0.0 0.0 0.0 0.0 0.0 0.0
00000000: 1717 163f 0000 0000 0000 0000 0000 0000
00000010: 0000 0000 0000 0000 0000 0000 0000 0000
00000020: 0000 0000 0000 0000 0000 0000 0000 0000
00000030: 0000 0000 0000 0000 0000 0000 0000 0000
00000040: 0000 0000 0000 0000 0000 0000 0000 0000
00000050: 0000 0000 0000 0000 0000 0000 0000 0000
00000060: 0000 0000 0000 0000 0000 0000 0000 0000
00000070: 0000 0000 0000 0000 0000 0000 0000 0000
00000080: 0000 0000 0000 0000 0000 0000 0000 0000
00000090: 0000 0000 0000 0000 0000 0000 0000 0000
000000a0: 0000 0000 0000 0000 0000 0000 0000 0000
000000b0: 0000 0000 0000 0000 0000 0000 0000 0000
000000c0: 0000 0000 0000 0000 0000 0000 0000 0000
000000d0: 0000 0000 0000 0000 0000 0000 0000 0000
000000e0: 0000 0000 0000 0000 0000 0000 0000 0000
000000f0: 0000 0000 0000 0000 0000 0000 0000 0000
00000100: 0000 0000 0000 0000 0000 0000 0000 0000
00000110: 0000 0000 0000 0000 0000 0000 0000 0000
00000120: 0000 0000 0000 0000 0000 0000 0000 0000
00000130: 0000 0000 0000 0000 0000 0000 0000 0000
00000140: 0000 0000 0000 0000 0000 0000 0000 0000
00000150: 0000 0000 0000 0000 0000 0000 0000 0000
00000160: 0000 0000 0000 0000 0000 0000 0000 0000
00000170: 0000 0000 0000 0000 0000 0000 0000 0000
00000180: 0000 0000 0000 0000 0000 0000 0000 0000
00000190: 7ac3 1738 481f 243f 0000 0000 0000 0000
000001a0: 0000 0000 0000 0000 0000 0000 0000 0000
000001b0: 0000 0000 0000 0000 0000 0000 0000 0000
000001c0: 0000 0000 0000 0000 0000 0000 0000 0000
000001d0: 0000 0000 0000 0000 0000 0000 0000 0000
000001e0: 0000 0000 0000 0000 0000 0000 0000 0000
000001f0: 0000 0000 0000 0000 0000 0000 0000 0000
00000200: 0000 0000 0000 0000 0000 0000 0000 0000
00000210: 0000 0000 0000 0000 0000 0000 0000 0000
00000220: 0000 0000 0000 0000 0000 0000 0000 0000
00000230: 0000 0000 0000 0000 0000 0000 0000 0000
00000240: 0000 0000 0000 0000 0000 0000 0000 0000
00000250: 0000 0000 0000 0000 0000 0000 0000 0000
00000260: 0000 0000 0000 0000 0000 0000 0000 0000
00000270: 0000 0000 0000 0000 0000 0000 0000 0000
00000280: 0000 0000 0000 0000 0000 0000 0000 0000
00000290: 0000 0000 0000 0000 0000 0000 0000 0000
000002a0: 0000 0000 0000 0000 0000 0000 0000 0000
000002b0: 0000 0000 0000 0000 0000 0000 0000 0000
000002c0: 0000 0000 0000 0000 0000 0000 0000 0000
000002d0: 0000 0000 0000 0000 0000 0000 0000 0000
000002e0: 0000 0000 0000 0000 0000 0000 0000 0000
000002f0: 0000 0000 0000 0000 0000 0000 0000 0000
00000300: 0000 0000 0000 0000 0000 0000 0000 0000
00000310: 0000 0000 0000 0000 0000 0000 0000 0000
00000320: d8e8 4abd f9f6 90b5 e70d 0f3f 0000 0000
00000330: 0000 0000 0000 0000 0000 0000 0000 0000
00000340: 0000 0000 0000 0000 0000 0000 0000 0000
00000350: 0000 0000 0000 0000 0000 0000 0000 0000
00000360: 0000 0000 0000 0000 0000 0000 0000 0000
00000370: 0000 0000 0000 0000 0000 0000 0000 0000
00000380: 0000 0000 0000 0000 0000 0000 0000 0000
00000390: 0000 0000 0000 0000 0000 0000 0000 0000
000003a0: 0000 0000 0000 0000 0000 0000 0000 0000
000003b0: 0000 0000 0000 0000 0000 0000 0000 0000
000003c0: 0000 0000 0000 0000 0000 0000 0000 0000
000003d0: 0000 0000 0000 0000 0000 0000 0000 0000
000003e0: 0000 0000 0000 0000 0000 0000 0000 0000
000003f0: 0000 0000 0000 0000 0000 0000 0000 0000

mean_module.constant f4 [20, 1]
-0.0061868033 -8.6737106e-15 -1.2291247e-14 0.110045366 6.382638e-13 -0.052047748 -0.01698248 0.1648422
0.331152 0.07854383 -2.495286e-15 -3.146863e-14 -3.719346e-13 1.0167089e-13 0.062423844 3.7586286e-13
-2.1733446e-13 6.5580207e-13 -1.975861e-11 1.1265035
00000000: abba cabb 6e40 1ca8 5f6b 5da8 775f e13d
00000010: c1a7 332b 0530 55bd d81e 8bbc 65cc 283e
00000020: c18c a93e 96db a03d e7cd 33a7 dcb8 0da9
00000030: 6d61 d1aa 47f1 e429 25b0 7f3d 8c97 d32a
00000040: 65b2 74aa 8597 382b 6fcc adad 4431 903f

covar_module.raw_outputscale f4 [20]
-3.1911623 -24.109373 -23.903677 -2.4046686 -24.234047 -2.221268 -1.7347516 -2.848563
-3.645391 -3.031733 -24.328913 -24.582867 -24.925499 -23.671549 -1.6481379 -23.994753
-24.118551 -23.796562 -23.49264 -8.005472
00000000: 013c 4cc0 ffdf c0c1 bb3a bfc1 17e6 19c0
00000010: 54df c1c1 4129 0ec0 570c debf db4e 36c0
00000020: 164e 69c0 ea07 42c0 9da1 c2c1 b6a9 c4c1
00000030: 6c67 c7c1 555f bdc1 2ff6 d2bf 41f5 bfc1
00000040: cbf2 c0c1 5c5f bec1 edf0 bbc1 6a16 00c1

covar_module.base_kernel.raw_lengthscale f4 [20, 1, 13]
-1.432407 181.08862 -2.9491885 6.0263386 6.011121 7.7569227 9.806454 3.9924839
12.484293 2.8593535 7.903482 8.947245 8.872562 -1.5457951 2.8305025 1.1629606
-1.6433369 -1.3107041 -1.72415 -1.9397831 -1.3406252 -1.7452341 -0.3088373 -1.4146037
-1.5255293 -1.3161719 -0.78477746 0.072668634 0.037338044 -0.9965722 -0.92565125 -0.88989055
-0.9424381 -0.84295785 -0.8836347 -0.8703198 -0.9140566 -0.8614595 -0.77233136 0.6047438
8.024136 11.41113 8.386642 8.133105 7.2813954 7.413524 11.642257 33.021065
3.624012 7.6279387 6.5075145 23.712082 -1.0027531 1.4248369 1.1326054 -1.6786616
-1.2546221 -0.88495374 -1.4044918 -0.95978916 -1.0223823 -1.4633489 -0.57468796 -1.4210049
-0.574148 0.455525 6.3000407 8.437338 8.391035 9.519152 10.528082 14.00551
9.456803 16.234467 16.31085 14.080558 14.549489 17.747221 0.9141169 11.700334
4.3482194 11.035542 12.284854 11.923249 12.081446 6.2072816 21.091412 2.337757
10.818985 8.927906 16.303772 5.6492887 2.8796992 12.199798 20.169273 19.818834
19.515388 23.413115 21.74967 22.4949 24.624475 20.073008 20.95805 20.809288
2.3255274 35.779884 10.762459 10.751981 12.032109 11.201506 10.60837 10.148619
10.3398075 18.67046 11.192074 12.301255 12.14831 3.7618706 5.91928 19.650146
20.708935 19.071798 21.416142 20.35593 19.292189 28.978964 13.971039 19.497448
21.124357 27.993454 0.6928532 4.5581317 4.5732026 -0.11985861 0.81151146 0.64127636
0.3659801 0.39723197 0.039346986 0.29381868 0.7961278 0.14055623 0.65355587 0.16574703
4.972525 3.4002092 -0.44479853 -0.21242008 -0.4940155 -0.24087699 -0.40399837 -0.22415064
-0.046664905 -0.70847267 -0.47714418 -0.12637849 -1.5870198 -1.002304 -0.82828146 -1.587681
-1.6027306 -1.7161858 -1.7093409 -1.6733005 -1.4885488 -1.7290395 -1.603119 -1.6000054
-1.6643434 -1.3485539 0.7030663 8.5924425 -0.62409747 -0.3980459 -0.5056108 -0.6466715
-0.46290508 -0.39437124 -0.6428987 -0.6859658 -0.4877267 -0.55416757 -0.1797088 5.3972745
6.276491 5.526898 5.688242 5.9004693 5.9435244 8.201067 11.397689 4.8607554
5.470459 6.368429 5.590017 -0.35072377 1.1419228 1.640148 -0.40240246 0.094814874
-0.78198427 -0.67392856 -0.522004 -0.5847567 -0.44813293 -0.5184083 -0.35732454 -0.3748312
-1.3929622 -0.8976062 -0.5594931 -1.3735495 -1.5354052 -1.4719205 -1.2087151 -1.4963112
-1.2214519 -1.5194498 -1.4465748 -1.2908764 -1.4941247 -0.34229657 4.261559 -0.40857452
0.29829288 -0.24506329 0.3610386 -0.3770705 -0.37834325 -0.21438946 0.13288726 -0.36901355
0.26160777 -0.16742188 -0.8250939 0.5061985 0.12537552 -1.0193398 -0.8794849 -1.0989149
-1.0351034 -1.1728374 -1.0999823 -1.2264196 -0.72296333 -0.93939084 -0.947608 16.967934
150.12534 119.36685 14.571656 11.841581 12.259805 10.801242 12.704169 15.439886
00000000: 1d59 b7bf b016 3543 81bf 3cc0 c4d7 c040
00000010: 1a5b c040 b638 f840 3ce7 1c41 db84 7f40
00000020: aabf 4741 a6ff 3640 53e9 fc40 ea27 0f41
00000030: 04f6 0d41 9ddc c5bf f426 3540 e5db 943f
00000040: dd58 d2bf 27c5 a7bf f2b0 dcbf d04a f8bf
00000050: 9b99 abbf d563 dfbf ec1f 9ebe bc11 b5bf
00000060: 8b44 c3bf 5278 a8bf 2de7 48bf 4bd3 943d
00000070: c7ef 183d 5b1f 7fbf 7bf7 6cbf decf 63bf
00000080: a043 71bf 16cc 57bf e235 62bf 47cd 5ebf
00000090: 9dff 69bf 9c88 5cbf 82b7 45bf 7dd0 1a3f
000000a0: dc62 0041 fd93 3641 b02f 0641 3321 0241
000000b0: 3101 e940 973b ed40 af46 3a41 9215 0442
000000c0: d0ef 6740 1318 f440 8f3d d040 58b2 bd41
000000d0: 375a 80bf 0e61 b63f 37f9 903f 62de d6bf
000000e0: 7597 a0bf 548c 62bf 63c6 b3bf beb4 75bf
000000f0: 6cdd 82bf 044f bbbf c01e 13bf 7de3 b5bf
00000100: 5dfb 12bf 933a e93e ef99 c940 56ff 0641
00000110: ae41 0641 724e 1841 0673 2841 9216 6041
00000120: 114f 1741 30e0 8141 9f7c 8241 f749 6141
00000130: b5ca 6841 4ffa 8d41 9103 6a3f 9134 3b41
00000140: 9d24 8b40 9491 3041 c38e 4441 a1c5 3e41
00000150: 9a4d 4141 0da2 c640 36bb a841 d09d 1540
00000160: 901a 2d41 b4d8 0e41 206e 8241 f9c6 b440
00000170: fe4c 3840 5f32 4341 ac5a a141 f98c 9e41
00000180: 841f 9c41 0f4e bb41 53ff ad41 8ef5 b341
00000190: edfe c441 8595 a041 16aa a741 6c79 a641
000001a0: 71d5 1440 9a1e 0f42 0833 2c41 1d08 2c41
000001b0: 8583 4041 5e39 3341 e2bb 2941 be60 2241
000001c0: da6f 2541 1a5d 9541 bc12 3341 f1d1 4441
000001d0: 7a5f 4241 7dc2 7040 be6a bd40 8033 9d41
000001e0: e6ab a541 0b93 9841 4254 ab41 f2d8 a241
000001f0: 6756 9a41 ebd4 e741 6089 5f41 c6fa 9b41
00000200: affe a841 98f2 df41 d45e 313f 37dc 9140
00000210: ad57 9240 6e78 f5bd 37bf 4f3f b02a 243f
00000220: be61 bb3e fd61 cb3e 4e2a 213d 676f 963e
00000230: 08cf 4b3f f9ed 0f3e 704f 273f 97b9 293e
00000240: ed1e 9f40 079d 5940 a2bc e3be a684 59be
00000250: 9aef fcbe 75a8 76be e0d8 cebe bf87 65be
00000260: b323 3fbd 775e 35bf 3e4c f4be 5d69 01be
00000270: 7723 cbbf 7f4b 80bf 410a 54bf 2239 cbbf
00000280: 4726 cdbf faab dbbf afcb dabf b62e d6bf
00000290: c488 bebf 2b51 ddbf 0133 cdbf facc ccbf
000002a0: 3409 d5bf 6a9d acbf 27fc 333f a57a 0941
000002b0: dac4 1fbf accc cbbe b66f 01bf 438c 25bf
000002c0: e501 edbe 07eb c9be 0295 24bf 749b 2fbf
000002d0: 50b7 f9be eddd 0dbf 9505 38be 79b6 ac40
000002e0: 04d9 c840 59dc b040 1406 b640 a5d0 bc40
000002f0: 5a31 be40 9237 0341 ef5c 3641 4f8b 9b40
00000300: 000e af40 2cca cb40 6be1 b240 1192 b3be
00000310: 872a 923f 5ff0 d13f b207 cebe 4d2e c23d
00000320: 1f30 48bf 9586 2cbf 0ea2 05bf 9db2 15bf
00000330: ae71 e5be 68b6 04bf 3ef3 b6be e0e9 bfbe
00000340: 964c b2bf 85c9 65bf f13a 0fbf 78d0 afbf
00000350: 2888 c4bf e467 bcbf 2db7 9abf 2087 bfbf
00000360: 8958 9cbf 557d c2bf 5d29 b9bf 703b a5bf
00000370: 7a3f bfbf 7f41 afbe b15e 8840 ae30 d1be
00000380: d8b9 983e dff1 7abe 0dda b83e 620f c1be
00000390: 35b6 c1be e988 5bbe 9913 083e 58ef bcbe
000003a0: 74f1 853e a470 2bbe 5b39 53bf 3a96 013f
000003b0: 7162 003e ba79 82bf ec25 61bf 3ea9 8cbf
000003c0: 457e 84bf 891f 96bf 38cc 8cbf 51fb 9cbf
000003d0: 2014 39bf eb7b 70bf 7096 72bf 54be 8741
000003e0: 1620 1643 d4bb ee42 8125 6941 1e77 3d41
000003f0: 2928 4441 e3d1 2c41 4744 4b41 c609 7741
